submissions/wdbc-classification/wdbc-model.pt (torch, 7088 bytes, 6 tensors)

quantum_weights f4 [3, 10, 3]
0	0x3e8c3969	0.2738755
1	0xc0329470	-2.79031
2	0xbf9cdbc0	-1.2254562
3	0x3e8e6458	0.2781093
4	0xbfcef757	-1.6169232
5	0x3fa2d5df	1.2721518
6	0xbe0317cf	-0.12802051
7	0x3fad044b	1.3516935
8	0x3a7c803c	0.00096321455
9	0xbf60d075	-0.8781808
10	0xbeb25f7d	-0.34838477
11	0xbf38c519	-0.7217575
12	0x400ff74e	2.2494693
13	0xbefb2491	-0.49051335
14	0xbfdf1a00	-1.742981
15	0x3dfb9b9d	0.1228554
16	0xbfab3afc	-1.3377376
17	0x3f2aa942	0.66664517
18	0xbf87a30d	-1.0596634
19	0x3fd27a1f	1.6443518
20	0xbf9a261e	-1.2042882
21	0xbfc7f122	-1.5620463
22	0xbf1e1a85	-0.61759216
23	0x3e20eeab	0.15716045
24	0x3ee3aae2	0.4446631
25	0xbc27bcf3	-0.01023792
26	0xbd9c4321	-0.07629991
27	0x3eeaf24b	0.4588798
28	0xbda92d1b	-0.08260556
29	0x3ee9ff8f	0.45702788
30	0x3f94e00e	1.1630876
31	0x3fd3d67a	1.6549828
32	0x39e8632e	0.00044324383
33	0x3fc4b642	1.5368121
34	0x3fc6e8a4	1.5539746
35	0x3f8cb736	1.0993412
36	0x3c342519	0.010995173
37	0xbfdad866	-1.709729
38	0x3fcf8027	1.6210984
39	0xbf2e8660	-0.6817379
40	0x4000680b	2.0063503
41	0x3effb5f4	0.49943507
42	0x3b001401	0.0019543173
43	0xbfbae726	-1.4601791
44	0xbf990474	-1.1954484
45	0xbf85d7b5	-1.0456454
46	0xbf2bb8c2	-0.67078793
47	0xbea360f0	-0.31909895
48	0x3f375526	0.716143
49	0xb960b10b	-0.00021428258
50	0xbe77091d	-0.2412457
51	0xbf95b54b	-1.1695951
52	0xbfd5300f	-1.6655291
53	0xbcd18295	-0.025574962
54	0x3e767d5c	0.24071258
55	0xbe47ba1a	-0.19504586
56	0xbdcf4af1	-0.10121716
57	0xbed7bb35	-0.42135015
58	0x3fc7bf50	1.5605259
59	0xbf52cd15	-0.8234418
60	0xbf6fe2f4	-0.9370568
61	0x3fc99665	1.5749022
62	0x36d71d28	6.4108935e-06
63	0xbfb82b80	-1.4388275
64	0xbfc8e98f	-1.5696276
65	0x3f99cd65	1.2015806
66	0xbf13c292	-0.57718766
67	0x3f442969	0.76625687
68	0xbce0bc70	-0.027433604
69	0xbe930d6a	-0.28721172
70	0x35cc0914	1.5201826e-06
71	0xbd2e4f13	-0.04255588
72	0x3fb9bcf7	1.4510792
73	0x399a88ae	0.00029475003
74	0x3f8eea99	1.1165344
75	0x3aab0501	0.0013047756
76	0x3e8752b1	0.26430276
77	0x3c08778a	0.008329282
78	0x3e966a01	0.2937775
79	0xbfe7d72a	-1.8112538
80	0xbf16f664	-0.5896971
81	0xbfb60421	-1.422001
82	0x3ec4b8ac	0.38422143
83	0x3b3aecfc	0.0028522601
84	0x3e09c87b	0.13455383
85	0xbf19c184	-0.60060906
86	0x3ef6fee9	0.48241356
87	0x3d0873c2	0.03331352
88	0xbf646114	-0.8921063
89	0x3f25e5e7	0.6480393

quantum_random_weights f4 [3, 10]
0	0xbb85a547	-0.0040785405
1	0x3fffb3ad	1.9976708
2	0xc0531b00	-3.298523
3	0x3f057f35	0.5214723
4	0x3e98a087	0.29809973
5	0x3f6d4e0d	0.9269722
6	0xbe987372	-0.29775578
7	0x3f299bda	0.66253436
8	0xbff7f5c1	-1.9371873
9	0x3f9bc633	1.2169861
10	0x3e3962f9	0.18104161
11	0x3ecb67a9	0.39727524
12	0x3ea85332	0.32875973
13	0x3eb985b0	0.36234808
14	0xbf420e80	-0.75803375
15	0x3e328eec	0.17437333
16	0x3f4b5b11	0.7943583
17	0xbf612897	-0.8795256
18	0x3dbff674	0.09373179
19	0x3fcbc0f0	1.5918255
20	0xbf008d68	-0.5021577
21	0x3e862123	0.26197156
22	0x3ed19191	0.4093137
23	0x3df5ad8d	0.11995993
24	0x3f8a0236	1.0781925
25	0xbfb658da	-1.4245865
26	0xbe8d9ffd	-0.27661124
27	0x3fe50710	1.789278
28	0xbfd51c00	-1.664917
29	0xbb862639	-0.004093912

classical_extractor.fc1.weight f4 [20, 31]
0	0x3ba0f60e	0.0049121445
1	0x3cfcc779	0.030856835
2	0xbd9115a8	-0.07084209
3	0x3dfbfb9e	0.123038515
4	0x3d8ca9ae	0.06868301
5	0x3caa27f4	0.020771004
6	0x3e137df3	0.14403515
7	0xbe979f7b	-0.2961386
8	0xbd19403f	-0.037414785
9	0x3b685b5a	0.003545484
10	0xbdb21348	-0.08695084
11	0xbe130bc2	-0.14359954
12	0x3d7557cc	0.059898183
13	0x3d2748b3	0.040840816
14	0xbea3af42	-0.3196965
15	0x3d34fa46	0.04418399
16	0x3d9824d5	0.074289
17	0xbdb939d6	-0.090442345
18	0x3bb971bb	0.0056593097
19	0x3c4f9613	0.012670058
20	0xbde3bccb	-0.11119994
21	0xbe620a6f	-0.22074293
22	0xbcf37015	-0.02971653
23	0xbc49c560	-0.012315124
24	0xbec16bd3	-0.37777576
25	0x3d9bbdd7	0.076045685
26	0xbce21d66	-0.027601909
27	0xbd92e8ab	-0.07173284
28	0xbd8d485c	-0.06898567
29	0xbdc4bcad	-0.096062995
30	0x3d2d6be7	0.04233923
31	0x3d65d5b1	0.056111995
32	0x3d422205	0.047395725
33	0x3e37b352	0.17939499
34	0xbdded392	-0.108801976
35	0xbdfdb56a	-0.123881176
36	0x3e32fd75	0.17479499
37	0x3dd4ab88	0.103842795
38	0xbe9fc82c	-0.31207407
39	0xbd0bd433	-0.034137916
40	0x3dfc4176	0.12317173
41	0xbe89c7da	-0.26910287
42	0xbe360cf7	-0.17778383
43	0xbc233aa1	-0.009962709
44	0xbd646d80	-0.05576849
45	0xbe269e29	-0.16271271
46	0xbc0f4269	-0.008743861
47	0x3de3019c	0.11084291
48	0xbd305d8e	-0.04305797
49	0xbd05b21b	-0.032640558
50	0xbd07b7cd	-0.03313427
51	0xbd0502e7	-0.03247347
52	0x3c6f2b91	0.014597789
53	0xbdd28da4	-0.10280922
54	0xbe129443	-0.1431437
55	0xbecdcb30	-0.40194082
56	0xbd288748	-0.04114464
57	0x3d918b3a	0.071066335
58	0xbe4be9dd	-0.1991343
59	0x3e64b895	0.22336037
60	0xbd65d7a6	-0.05611386
61	0xbe202f9b	-0.1564316
62	0x3daa363b	0.08311125
63	0x3e304094	0.17212135
64	0xbb9636c8	-0.004584167
65	0x3d0a2a64	0.033731833
66	0xbe3bfbe5	-0.18357809
67	0x3d497868	0.049187094
68	0x3df3c107	0.119020514
69	0xbe1eb800	-0.15499878
70	0xbd97afe0	-0.07406592
71	0xbe44e9c7	-0.19229804
72	0xbd0688d8	-0.032845348
73	0xbe254a8f	-0.16141723
74	0x3d903a0d	0.07042322
75	0xbe07c883	-0.13260083
76	0xbe939e57	-0.2883174
77	0xbe15a48a	-0.14613548
78	0x3e62c0d7	0.22143875
79	0x3e581218	0.21100652
80	0xbd6fde14	-0.0585614
81	0xbe31c7d1	-0.1736138
82	0x3da11a70	0.07866371
83	0x3db25524	0.087076455
84	0xbe07e415	-0.132706
85	0x3e40fd71	0.1884668
86	0xbd0f3143	-0.03495909
87	0xbea54a3d	-0.32283202
88	0x3d084c8b	0.033276122
89	0xbd037a65	-0.032099146
90	0x3ab70464	0.00139631
91	0x3b360ec1	0.002777979
92	0xbcc99b16	-0.024610084
93	0xbb9f0989	-0.0048534316
94	0x3e0410d8	0.1289705
95	0x3df0e70e	0.1176282
96	0x3e0ed427	0.13948117
97	0x3daeeb6f	0.08540999
98	0x3d21e3c9	0.039523873
99	0xbd72d22a	-0.05928246
100	0xbd49e44a	-0.04928998
101	0x3dca4db3	0.09878101
102	0x3da796e2	0.081830755
103	0xbd8371d9	-0.06418199
104	0x3e5f3c15	0.21800263
105	0x3cb6a2e2	0.022294465
106	0x3d9ec5ca	0.07752569
107	0xbc378881	-0.011201979
108	0xbbe6525b	-0.0070288605
109	0x3dc69c16	0.0969774
110	0x3b2b283b	0.0026116509
111	0x3b4d820a	0.0031358027
112	0xbe30d159	-0.1726736
113	0xbd75d09f	-0.06001341
114	0xbdac9131	-0.084261306
115	0x3def8ad8	0.11696404
116	0x3dfe8935	0.12428514
117	0x3d315983	0.043298256
118	0x3e1355d2	0.14388207
119	0xbdb52b50	-0.08846152
120	0x3e2d3daa	0.16918054
121	0x3de037de	0.10948156
122	0x3d0b4d85	0.034009475
123	0xbd1e5d35	-0.038663108
124	0x3cfade3c	0.030623548
125	0x3c68e638	0.014215045
126	0xbdc3e129	-0.0956443
127	0xbe2fb171	-0.17157532
128	0xbd022c3c	-0.031780466
129	0x3c2376f0	0.009977087
130	0xbce8a97b	-0.028401127
131	0x3b945fac	0.0045280065
132	0xbd2feb42	-0.04294897
133	0x3a850bb5	0.0010150584
134	0x39ead462	0.00044790196
135	0xba6e04b9	-0.0009079683
136	0x3d6eb461	0.05827749
137	0xbd615cf4	-0.055020288
138	0xbe1847c7	-0.14871131
139	0x3a2da9b7	0.0006624716
140	0xbe011a0c	-0.12607592
141	0x3d013af8	0.031550378
142	0x3d8599bb	0.065234624
143	0xbbd360f7	-0.006450768
144	0xbd89d5e7	-0.06730252
145	0x3ddf4991	0.109027036
146	0x3dbbd122	0.09170748
147	0xbd45abb4	-0.048259452
148	0xbe2072a1	-0.15668727
149	0x3cc58f1f	0.024116097
150	0x3d1aa12f	0.037751373
151	0x3d7e32af	0.062060054
152	0xbd636633	-0.055517387
153	0x3d8f2a25	0.0699046
154	0xbdd6267f	-0.10456561
155	0x3d19f22d	0.037584472
156	0x3d8eb959	0.06968946
157	0x3d685c42	0.05672861
158	0xbdf01330	-0.1172241
159	0xbe6bf461	-0.23042442
160	0x3e111334	0.14167482
161	0x3e1a58a3	0.15072875
162	0xbebc48c6	-0.36774272
163	0xbe0e9b0e	-0.13926336
164	0x3dcf58b2	0.10124339
165	0xbda93b47	-0.082632594
166	0xbe173501	-0.14766313
167	0xbe2e11fe	-0.16999051
168	0xbdc5f76a	-0.09666331
169	0xbdddf0df	-0.10836958
170	0xbe1aa44d	-0.15101738
171	0x3e26f3d4	0.1630395
172	0x3e353cfa	0.17699042
173	0x3e157894	0.14596778
174	0x3d179454	0.03700669
175	0x3c3326eb	0.010934572
176	0xbe3197c7	-0.17343055
177	0xbd8e3750	-0.06944144
178	0xbe204444	-0.15651041
179	0xbea910d5	-0.33020654
180	0xbda0dba3	-0.078543924
181	0xbaae2782	-0.0013286921
182	0xbe86ad9f	-0.26304337
183	0x3dc1fa98	0.09471625
184	0xbe0f53c8	-0.13996804
185	0xbde95672	-0.11393441
186	0xbdefb43f	-0.11704301
187	0xbd2f8251	-0.04284889
188	0xbd800d2c	-0.06252512
189	0xbb0537e5	-0.0020327505
190	0xbdffbe06	-0.12487416
191	0x3a0bb40a	0.0005329257
192	0xbe6bb348	-0.23017609
193	0x3d6d4baa	0.057933487
194	0x3d8ec0a1	0.06970335
195	0xbc9f0a6e	-0.019414153
196	0x3d3e6ba7	0.046489384
197	0x3cce3768	0.025172904
198	0xbdbcbfa5	-0.09216241
199	0x3d6d6e55	0.05796655
200	0x3dc1d3b8	0.0946421
201	0xbc0d2214	-0.008614082
202	0xbd9604a1	-0.07325102
203	0x3e3674e2	0.17818025
204	0x3d4ff4e7	0.050770666
205	0xbd4c480d	-0.0498734
206	0xbce9f0f0	-0.02855727
207	0xbd567448	-0.05235699
208	0x3c54179b	0.012945081
209	0xbe1bd2ec	-0.15217179
210	0x3dcc0d1b	0.09963437
211	0x3d6cd83b	0.0578234
212	0x3c727335	0.014797975
213	0xbde8996a	-0.113573864
214	0xbda7d411	-0.08194745
215	0xbd6993b8	-0.05702564
216	0xbd51d769	-0.05123082
217	0x3b3d8840	0.0028920323
218	0xbd02b5fa	-0.031911828
219	0xbd6afefa	-0.05737207
220	0x3dfd03d0	0.12354243
221	0x3d89176b	0.0669392
222	0x3d34da68	0.0441536
223	0xbe9337ea	-0.28753597
224	0xbc046157	-0.008079848
225	0xbdc3b92d	-0.09556804
226	0xbb98be1f	-0.004661336
227	0xbe3594fe	-0.17732617
228	0x3e7139bc	0.2355718
229	0x3c300756	0.0107439365
230	0x3dd784f8	0.10523409
231	0xbd0fdf0a	-0.035124816
232	0x3de63ed4	0.11242452
233	0x3d911b17	0.07085245
234	0x3cd5d075	0.026100377
235	0xbc54ea06	-0.012995249
236	0xbda4547d	-0.08023927
237	0xbd25d4ee	-0.04048627
238	0xbdb1a2b8	-0.08673614
239	0xbba9aefe	-0.0051783314
240	0x3dd9455c	0.106089324
241	0xbe480d3b	-0.19536297
242	0xbd8b59e3	-0.06804254
243	0xbe1d3a24	-0.1535421
244	0xba9f9560	-0.0012175255
245	0xbb287e53	-0.002571006
246	0xbc39c5d4	-0.01133867
247	0xbd4a3bdb	-0.04937349
248	0xbd3a481d	-0.04547893
249	0x3cc2fe69	0.023802953
250	0xbdd846fb	-0.105604135
251	0x3e592d7e	0.2120876
252	0xbe2d23bb	-0.16908161
253	0x3d07febb	0.033201914
254	0x3e5e6a59	0.21720256
255	0xbdbe9e99	-0.09307594

classical_extractor.fc1.bias f4 [20]
0	0x3ed667c8	0.41876054
1	0x3e93458c	0.28763998
2	0x3e62a513	0.22133283
3	0x3ed7fa46	0.4218313
4	0x3d8990de	0.06717084
5	0x3f06776b	0.5252597
6	0xbdaa8ac0	-0.08327246
7	0x3eb7a675	0.35869184
8	0x3e98e08a	0.2985881
9	0x3e753d16	0.23949084
10	0x3ee88e2f	0.45420977
11	0x3e5c9589	0.21541418
12	0x3cec4c55	0.028844992
13	0x3f07fc34	0.53119206
14	0x3e987d93	0.29783306
15	0x3e5aba93	0.21360235
16	0x3e5c58f3	0.21518306
17	0x3ea8987c	0.32928836
18	0x3e975d6b	0.2956346
19	0xbdd9a961	-0.106280096

classical_extractor.fc2.weight f4 [10, 20]
0	0x3d9bd331	0.07608641
1	0xbda31da0	-0.07964635
2	0xbdade5e9	-0.084911175
3	0x3dd032f8	0.101659715
4	0xbdd4febc	-0.10400149
5	0x3d83639d	0.06415484
6	0xbdca7c7a	-0.09887023
7	0xbc999c93	-0.018751418
8	0xbc35d8c3	-0.011099043
9	0xbe25ca9c	-0.1619057
10	0x3e0d2a45	0.13785656
11	0x3d9b23b6	0.07575171
12	0xbd058d47	-0.032605436
13	0xbe1d07c8	-0.15335
14	0xbdab4c3c	-0.0836415
15	0x3d5f4d67	0.054517176
16	0xbd197e7c	-0.03747414
17	0xbe0eca38	-0.13944328
18	0x3d46b06b	0.04850809
19	0x3cae4c10	0.021276504
20	0x3cef4c99	0.02921133
21	0xbd023000	-0.031784058
22	0x3d15d396	0.036578737
23	0x3d9b30be	0.07577656
24	0xbacb000f	-0.0015487688
25	0x3dc434cd	0.095803834
26	0xbdf58046	-0.11987357
27	0x3d720b14	0.059092596
28	0xbddb9cc1	-0.10723258
29	0x3cbd459c	0.023104481
30	0x3e0af609	0.13570417
31	0x3dd8f5c3	0.1059375
32	0x3caabca4	0.020841904
33	0x3bd7e81d	0.0065889494
34	0xbdc0c5e3	-0.09412744
35	0xbd9299b2	-0.07158221
36	0xb8d34d98	-0.00010075717
37	0xbdbaa81d	-0.09114096
38	0x3d915e3a	0.070980504
39	0xbcd2fa95	-0.025754252
40	0xbe85b6a2	-0.261159
41	0xbe2e1f09	-0.17004026
42	0xbd1bc950	-0.038033783
43	0x3e992f95	0.29919115
44	0x3d13700d	0.03599553
45	0xbd8d0fc1	-0.068877704
46	0xbdec1ca4	-0.115289
47	0x3eddaaf9	0.43294504
48	0xbe0fb556	-0.14034018
49	0x3e90e0ff	0.28296658
50	0x3ea4ba85	0.32173553
51	0x3deaf55a	0.11472578
52	0x3eb64674	0.35600626
53	0x3eae0458	0.3398769
54	0x3e765b6c	0.24058312
55	0x3d234be5	0.0398673
56	0x3ec4c616	0.38432378
57	0x3e92d318	0.28676677
58	0xbe81fa54	-0.25386298
59	0xbe21011a	-0.15723076
60	0xbc9a22f3	-0.018815493
61	0xbda58442	-0.08081867
62	0xbc9bb8f2	-0.019009087
63	0x3dba941f	0.09110283
64	0x3d9ef34f	0.07761251
65	0x3d98d079	0.07461638
66	0xbd934ebf	-0.07192754
67	0x3d98fb4a	0.074698046
68	0xbd3968cc	-0.045265958
69	0xbe59147b	-0.21199219
70	0x3d925b12	0.071462765
71	0xbdf49f52	-0.119444504
72	0x3ca04fe3	0.019569343
73	0x3d933264	0.071873456
74	0x3db0c17a	0.08630653
75	0xbe1312d7	-0.14362656
76	0x3d68cfc8	0.05683878
77	0x3dedfd28	0.11620551
78	0x3d7789d1	0.060434166
79	0x3d47d928	0.04879108
80	0xbd374713	-0.044745516
81	0x3d32677a	0.043555714
82	0xbbecb43c	-0.007223634
83	0x3d81aede	0.063321814
84	0x3c855f1a	0.0162807
85	0xbcb9ee33	-0.02269659
86	0xbd856093	-0.06512561
87	0xbd0ba98b	-0.034097236
88	0xbd9f8707	-0.07789426
89	0xbe2d8638	-0.16945732
90	0xbd9fa52b	-0.07795175
91	0xbc272cb0	-0.010203525
92	0xbd021104	-0.03175451
93	0x3ce3589b	0.027752211
94	0x3be1d104	0.0068913717
95	0x3e17634f	0.14783977
96	0xbcb2f3d7	-0.021844788
97	0x3ce9d317	0.028543038
98	0x3d77f766	0.060538672
99	0xbc8f4b5a	-0.017491985
100	0x3dc57bc9	0.09642751
101	0x3e29594a	0.16537967
102	0xbd3864ae	-0.04501789
103	0xbe510571	-0.20412232
104	0x3cb917f1	0.022594424
105	0x3bef527e	0.007303535
106	0x3e2b06e3	0.16701846
107	0xbe9ffed0	-0.31249094
108	0x3e115bd8	0.14195192
109	0xbddbb910	-0.10728657
110	0x3ccc9689	0.024974125
111	0x3ce3fe21	0.027831139
112	0xbe80857e	-0.25101846
113	0xbebdc951	-0.37067655
114	0xbe87d164	-0.2652694
115	0xbe50977a	-0.20370284
116	0xbea0377b	-0.31292328
117	0xbe30be2c	-0.17260045
118	0x3e6fbbd3	0.23411493
119	0x3d90b64b	0.070660196
120	0xbd862a8b	-0.06551083
121	0x3d6f6864	0.058449164
122	0x3db3cbd5	0.08779112
123	0xbcf920b0	-0.030411094
124	0xbdffcdf0	-0.12490451
125	0xbc824d89	-0.015906112
126	0x3e4a90df	0.19781826
127	0xbe0439ae	-0.12912628
128	0x3dc4e28b	0.09613522
129	0xbdaf4b36	-0.08559267
130	0xbbd89113	-0.006609091
131	0xbdb74294	-0.08948246
132	0xbd984d70	-0.07436645
133	0x3d4071ba	0.046983458
134	0xbd56aaac	-0.05240886
135	0xbc8b72d2	-0.017022524
136	0x3cb7fa46	0.022458207
137	0x3cdbb4da	0.026819635
138	0x3daac120	0.08337617
139	0x3e093f22	0.1340299
140	0x3eb50c5d	0.35360995
141	0x3ef1bd21	0.47214606
142	0x3edb1f1b	0.4279717
143	0x3b98fa7b	0.0046685315
144	0x3c3a4904	0.011369947
145	0x3efe5986	0.49677676
146	0xbe27f5da	-0.16402379
147	0x3deed652	0.11661972
148	0x3ea8f985	0.33002868
149	0xbe38340c	-0.17988604
150	0x3dacb04d	0.08432064
151	0x3d977976	0.07396214
152	0xbe0dfe02	-0.13866428
153	0x3e50152f	0.20320581
154	0x3cd080b7	0.025452001
155	0xbdc62ac7	-0.09676128
156	0xbe2e9c1c	-0.17051739
157	0xbe38349a	-0.17988816
158	0x3eb0af0e	0.34508556
159	0x3d9c3ad0	0.07628405
160	0xbda37a86	-0.07982354
161	0x3e1872ea	0.14887586
162	0x3c063d3b	0.008193309
163	0xbd4ccad5	-0.049998123
164	0xbdf827b7	-0.1211695
165	0xbd0d85eb	-0.034551542
166	0x3cbd0570	0.023073882
167	0xbc2d4d44	-0.010577504
168	0xbe2e37f9	-0.1701354
169	0x3deb5426	0.114906594
170	0xbd0eea10	-0.03489119
171	0x3dd23ef8	0.102659166
172	0xbbfe5952	-0.0077621127
173	0x3c5e6d23	0.013575825
174	0xbd9265f1	-0.0714835
175	0xbcbc2a3d	-0.02296936
176	0xbcbcc1cf	-0.023041634
177	0x3db6fc6f	0.08934867
178	0x3e2cfa94	0.16892463
179	0xbded8aa0	-0.11598706
180	0xbd812be1	-0.06307197
181	0x3dcda50e	0.10041247
182	0xbc00a53e	-0.007851897
183	0xbdc46b61	-0.095907934
184	0xbba583d4	-0.0050511155
185	0xbd35f9f0	-0.044427812
186	0xbd524a82	-0.051340587
187	0x3d00964a	0.031393327
188	0xbd98f43c	-0.07468459
189	0x3d470722	0.048590787
190	0xbd3d41b5	-0.04620524
191	0xbc615a78	-0.01375448
192	0x3bf0076f	0.007325105
193	0x3d484c39	0.048900817
194	0x3d66f26f	0.056383546
195	0x3c5706ea	0.013124207
196	0xbcf421ec	-0.029801331
197	0x3e02f414	0.12788421
198	0x3e0b0ac9	0.13578333
199	0xbd69b015	-0.05705269

classical_extractor.fc2.bias f4 [10]
0	0x3dba2566	0.090891644
1	0x3cb1e896	0.02171735
2	0x3e44d4d8	0.19221818
3	0xbe107452	-0.14106873
4	0x3d97ed18	0.07418269
5	0xbe6a9db3	-0.2291172
6	0xbe1e8866	-0.1548172
7	0x3ee580a5	0.4482471
8	0x3b359f32	0.0027713296
9	0x3d41adeb	0.047285
