submissions/Ensemble Quantum-Classical Hybrid for DIA/qnn_model_1.pth (torch, 3888 bytes, 7 tensors)

pre.0.weight f4 [5, 5]
000000 1c 36 33 3e 52 43 c0 be 43 23 a4 3e b8 14 37 bd
       0.1750111 -0.3755136 0.32058153 -0.044697493
000010 ef b1 48 3e 28 26 89 3e b0 c4 17 be 2e a6 88 3d
       0.19599126 0.26786923 -0.14821124 0.06672321
000020 82 17 33 bf c5 43 dc be bb f4 9e 3e 1a 5c 8a bb
       -0.69957745 -0.43020454 0.3104609 -0.004222405
000030 2c 6b 83 3e cf c9 93 be 31 d2 08 3e d4 c6 92 be
       0.25667703 -0.28864905 0.13361432 -0.2866732
000040 f1 c8 7a 3e 00 01 f4 3e 42 16 6b 3e f0 00 7e 3e
       0.24490716 0.47657013 0.2295771 0.24805045
000050 85 9b b9 3e 46 51 3d 3e 25 6a a1 3e d6 f1 38 bd
       0.36251464 0.18488035 0.31526294 -0.045152508
000060 19 8e 06 bf
       -0.52560574

pre.0.bias f4 [5]
000000 f7 1a 09 3f 78 4d 6f 3e e3 37 12 3e 18 79 1f 3e
       0.5355677 0.23369396 0.14279132 0.15573537
000010 01 3d 36 3f
       0.71186835

qlayer.weights f4 [6, 5, 3]
000000 b4 96 29 3f 21 63 c3 40 12 c3 c0 40 c8 8a cc 40
       0.6624558 6.1058507 6.0238123 6.391941
000010 d1 29 09 40 23 ea b0 40 3b f6 cd 3e 89 4f 23 40
       2.1431773 5.528581 0.4022692 2.5517294
000020 fe a3 aa 40 33 83 36 40 cd db a0 40 c7 8b b8 3f
       5.3325186 2.8517578 5.026831 1.4417657
000030 ce 2c 65 3f 04 6b be 40 cb 90 b3 40 f2 6d 47 40
       0.8952149 5.9505634 5.611425 3.1160855
000040 42 d9 6a 40 2d 91 c4 40 f8 34 9c 40 f4 4b 6a 40
       3.6695104 6.1427217 4.881466 3.6608858
000050 9f a0 8e 3e c9 79 a8 3e 8f 42 71 3f d9 3d d1 40
       0.2785692 0.32905415 0.94242185 6.5388
000060 41 c9 7e 40 67 8a 19 40 bf 0f 38 40 c4 ac b8 3f
       3.9810336 2.3990724 2.875961 1.4427724
000070 1f 17 99 40 70 5c 9f 40 ec cc c0 3f 76 e3 11 40
       4.7840724 4.980034 1.5062537 2.279508
000080 9b 72 02 40 c0 e7 b7 40 fb df a5 3f 8d ab 82 40
       2.038245 5.74704 1.2958978 4.0834413
000090 d2 9c c8 40 9a 0b 5b 40 34 d4 6a 3f 4c 2c a0 40
       6.269143 3.422583 0.91730046 5.0054073
0000a0 a2 24 a8 3f a7 78 9b 40 18 04 ae 40 c0 ce bb 40
       1.313618 4.858478 5.4379997 5.868988
0000b0 68 3c 9a 40 4c 50 2f 40 fd b0 ba 40 a6 f4 bb 3f
       4.819874 2.739276 5.834105 1.4684036
0000c0 6d 3f c5 40 47 32 2f 40 85 e9 a4 40 8e 63 b3 40
       6.1639924 2.7374437 5.153506 5.6059027
0000d0 64 eb ef 3e 97 d9 8a 40 5c 14 0f 40 49 00 17 3f
       0.46859276 4.3390613 2.2356176 0.5898481
0000e0 ea 29 24 40 92 df 07 40 75 2f 9a 40 e1 41 c4 40
       2.5650582 2.1230206 4.818293 6.133042
0000f0 93 cd aa 40 92 7a 7c 40 bc 99 14 40 d9 47 4e 40
       5.3375945 3.944981 2.3218832 3.2231352
000100 a3 77 7c 3e 69 03 6a 40 4b 93 af 40 a4 27 18 40
       0.24655013 3.6564581 5.48673 2.3774195
000110 b5 5f a3 3f f6 c6 82 3f f4 6f 91 40 3e a2 90 40
       1.2763582 1.0216968 4.544916 4.519805
000120 46 04 62 3e eb c8 9d 40 45 d4 12 40 77 40 00 40
       0.22071943 4.930776 2.294206 2.0039346
000130 94 55 b3 40 d3 94 8d 40 8d a2 a1 40 15 42 90 40
       5.6041965 4.424417 5.0510926 4.5080667
000140 73 b6 9b 40 ec 9a bc 40 00 30 84 40 d9 5c b5 40
       4.8660216 5.8939114 4.1308594 5.667584
000150 ce 68 1b 40 23 4e 59 40 a3 3a b0 40 20 d9 f9 3f
       2.4282718 3.395394 5.507158 1.9519386
000160 ae 08 c5 40 38 33 17 3f
       6.1573095 0.5906253

qlayer.shift f4 [5]
000000 09 5a 8e 40 64 93 77 40 4c 06 7f 40 0d ff 0e 40
       4.4484906 3.868371 3.9847593 2.234317
000010 97 98 b1 40
       5.5498767

head.0.weight f4 [16, 1]
000000 20 02 a8 bd b0 73 dc 3d 6c 3d df 3e ca 11 73 3f
       -0.0820353 0.10764253 0.4360155 0.9494902
000010 84 a4 c7 3f e8 bb c5 be 6c 65 91 3e d8 ed e0 bf
       1.5597081 -0.38619924 0.2839769 -1.7572584
000020 03 07 a8 bf 9c 85 c5 3f 6a 5f cf 3f 48 f5 1e 3f
       -1.312714 1.5431399 1.6200993 0.6209302
000030 52 25 84 bf 76 11 60 3f 99 cd 38 3f 76 a5 03 bf
       -1.0323889 0.87526643 0.7218872 -0.5142435

head.0.bias f4 [16]
000000 4c 51 b4 be b2 64 6b bf 92 19 19 bf 90 9e 73 bf
       -0.35218275 -0.91950524 -0.5980464 -0.9516382
000010 f8 23 9c 3e 6c e7 26 3e c8 7a 82 be 6a 90 70 3f
       0.30496192 0.16299218 -0.254843 0.9397036
000020 67 ac 0a 3f d9 b0 96 3e 5e 35 4e 3f c5 97 47 3e
       0.54169315 0.294318 0.8055018 0.19491489
000030 cb 15 de 3e 80 45 4e bf ac 77 c7 be 2e 75 1a bf
       0.43376002 -0.805748 -0.3895849 -0.6033505

head.2.weight f4 [1, 16]
000000 8c a5 2b be 80 d1 b0 bd c0 ab 61 3d c8 85 30 3e
       -0.1676237 -0.08633709 0.055095434 0.17238533
000010 aa 00 2f 3f 73 48 9b be e6 ff 39 be a5 8b cc be
       0.6836039 -0.30328712 -0.18164024 -0.3995029
000020 9d 28 0a bf 87 d3 e0 3e 32 d9 ce 3e ae 7a 23 3e
       -0.5396822 0.43911383 0.40400082 0.15964767
000030 53 a6 3c bf cc a8 76 be 1b 6f 06 bd d4 83 31 be
       -0.7369129 -0.24087828 -0.032820802 -0.17335445
