submissions/Ensemble Quantum-Classical Hybrid for DIA/qnn_model_0.pth (torch, 3888 bytes, 7 tensors)

pre.0.weight f4 [5, 5]
000000 a2 86 8e bd f6 97 49 3f 5a e2 ed be 1c d8 91 be
       -0.06959273 0.787475 -0.46461755 -0.2848519
000010 ac f7 1f bf 33 e6 c7 be 37 d9 5c 3e e6 70 97 3d
       -0.6248729 -0.39042816 0.21567236 0.073945805
000020 87 2e 3e be ca 30 38 3d 6d 38 a5 be ad 9a ea be
       -0.18572436 0.044968404 -0.32269612 -0.45821133
000030 59 70 38 3e d4 8e 87 be fe 77 85 bd 34 3f b9 3e
       0.18011607 -0.26476157 -0.06517027 0.36181033
000040 e6 a4 a6 3c 19 f1 ab bd fa aa 4d bf 32 89 b3 be
       0.020342302 -0.08395595 -0.80339015 -0.3506561
000050 40 9c 45 be 87 7b c3 3b d9 bb 19 bf 07 c6 48 3e
       -0.19297886 0.0059656533 -0.6005226 0.19606791
000060 a0 8b 84 be
       -0.25887775

pre.0.bias f4 [5]
000000 5a 74 47 3d 37 2a 31 be 74 bc 35 3e 80 50 ec be
       0.048694946 -0.1730126 0.1774767 -0.46155167
000010 8e b4 18 bd
       -0.037281565

qlayer.weights f4 [6, 5, 3]
000000 4c cd a8 40 fb 88 b1 40 f5 35 19 40 a5 9c b1 40
       5.2750607 5.5479712 2.3939183 5.5503716
000010 4d 8c 14 40 da b0 78 40 50 2e 14 40 8d 6e 9f 40
       2.3210633 3.8857942 2.3153267 4.982245
000020 22 89 bb 40 bf 9e 7d 3f a1 74 b3 40 ce a6 7a 40
       5.86049 0.9907035 5.607987 3.916431
000030 21 cc b6 40 03 99 6e 40 ce 41 91 40 de 7c 2f 40
       5.712418 3.728089 4.539283 2.7419963
000040 29 44 a5 40 c7 47 71 40 fe f1 0b 40 4b 82 6c 40
       5.1645703 3.770006 2.186645 3.6954525
000050 65 f6 b2 3f e0 30 1f 40 bc 3b f1 3f 7e d6 a4 40
       1.3981444 2.487358 1.8846354 5.151183
000060 a4 8d 8c 3f 58 83 e6 3f c2 76 01 40 98 e2 c2 3f
       1.0980725 1.8008833 2.0228734 1.5225401
000070 ae 19 74 40 42 1f 3a be f1 23 c5 40 f3 ab c9 3e
       3.8140674 -0.18175986 6.1606374 0.39389
000080 7e 2f b7 40 4d 3b 6f 40 35 7e 00 40 d2 d7 ab 40
       5.7245474 3.7379944 2.007703 5.3700953
000090 7f ff 59 40 d2 12 c3 40 b0 c4 4d 40 cc ba 0c 40
       3.4062192 6.0960474 3.2151299 2.1989012
0000a0 1d 32 6d 40 82 38 29 40 9c 09 97 40 83 c1 b5 40
       3.7061837 2.644074 4.719923 5.679872
0000b0 30 12 a6 40 9b 08 ef 3f cf ec 91 40 e0 ce 5b 40
       5.18972 1.8674501 4.5601573 3.4345016
0000c0 6b 45 97 40 dd 6f a5 3f 99 1f d5 3e 94 6f fa 3f
       4.727224 1.2924763 0.4162567 1.9565301
0000d0 a6 85 09 3f 6b 08 bb 40 3c b7 7b 40 37 24 a4 40
       0.53719556 5.8447776 3.9330587 5.1294208
0000e0 33 11 8d 40 f2 1c 3c 40 b5 b3 b7 40 fc 66 75 3f
       4.4083495 2.9392667 5.740687 0.95860267
0000f0 83 ee 53 40 28 f2 87 3f 9a 7b 87 40 e1 9a 01 40
       3.3114326 1.0620775 4.233838 2.025078
000100 fc 20 81 40 f9 74 33 40 85 34 b7 40 fe 0b c3 3f
       4.0352764 2.8040144 5.725161 1.5238035
000110 a9 61 8e 3f 9f 4b 8a 3f e1 3c ba 40 31 15 89 40
       1.1123554 1.0804328 5.8199315 4.283837
000120 95 c2 c7 40 6f 56 0d 3f 72 11 c1 3e 90 08 2f 3f
       6.2425027 0.5521001 0.37708622 0.6837244
000130 9a 9e 83 3f 03 40 8d 40 59 79 8c 40 30 6b ba 40
       1.0282776 4.414064 4.389813 5.8255844
000140 f8 74 c2 3f a9 f4 49 3f 80 71 95 40 67 95 ef 3f
       1.5191946 0.78888947 4.670105 1.8717469
000150 48 34 a9 40 93 5e 11 40 0f 0a 9e 40 3a 79 40 3f
       5.287632 2.2713974 4.938728 0.7518498
000160 ea 82 b8 3f 35 2e 83 40
       1.4414952 4.0993905

qlayer.shift f4 [5]
000000 e3 62 76 40 c6 30 13 40 05 b6 a5 40 35 86 a2 40
       3.8497856 2.299852 5.178469 5.0788827
000010 88 4b 7f 3f
       0.99724627

head.0.weight f4 [16, 1]
000000 d2 59 15 bf 2c 96 ae bf 50 0e 4a bf 61 2c 45 3f
       -0.5834018 -1.3639579 -0.7892809 0.7702084
000010 be 49 9b bf 1f 67 cc 3f a5 11 b2 3f 97 66 f1 bf
       -1.2131879 1.596897 1.3911635 -1.8859433
000020 38 29 31 3f b0 8c 2d 3f 50 43 c4 be 51 49 eb bf
       0.6920352 0.677928 -0.38332605 -1.8381749
000030 ef 23 63 bf ca 81 b3 3f c0 af 5f be 67 01 e1 bc
       -0.88726705 1.4023983 -0.21844387 -0.027466489

head.0.bias f4 [16]
000000 00 17 52 bf 54 11 0d 3f f2 ea 3b bf 9d ba a6 be
       -0.82066345 0.55104566 -0.73405373 -0.3256425
000010 e8 9d 5b 3e a5 bc 4a 3f ac e8 63 3f fc 5d 3d 3f
       0.21446955 0.791941 0.89026904 0.73971534
000020 f2 fc 4a bf 07 4a 88 3e 78 39 dc be 02 a6 96 3e
       -0.79292214 0.26618978 -0.43012595 0.2942353
000030 a0 f2 5a bf c9 25 7d 3f 2e e4 3b bf 40 10 ca 3e
       -0.85526466 0.9888578 -0.7339505 0.39465523

head.2.weight f4 [1, 16]
000000 e4 ef b3 3d 19 79 88 3e ca 67 0a be 49 4b 8b 3e
       0.0878599 0.2665489 -0.13516155 0.27205876
000010 fb 7a 0e 3f 8f af 1c bf 0d 9b 17 bf 5e 0f be 3e
       0.55656403 -0.6120538 -0.59220964 0.371211
000020 00 9f 19 bd 1f 3d 77 be ec e3 5b 3e 5d c8 5e 3f
       -0.03750515 -0.2414441 0.21473664 0.8702448
000030 4c 08 4d bd 8b ce ec be 80 9b 43 bc ef d8 47 bc
       -0.05005674 -0.4625133 -0.01193893 -0.012197717
