submissions/Ensemble Quantum-Classical Hybrid for DIA/qnn_model_2.pth (torch, 3888 bytes, 7 tensors)

pre.0.weight f4 [5, 5]
00000000: cf3c 92be 1f92 ff3e 11a6 fcbd c0ac 323f
00000010: d29b 073e e416 d8be 0b47 c0bd f8ce 0b3e
00000020: 6f09 21bf 5fe1 4a3c d470 6fbe a79a 8e3e
00000030: 71ec df3e e6f4 1c3f 810e 273f c0ce dabe
00000040: 8134 10bf 9ccd 46be 21da fbbd 6888 3ebc
00000050: 9e4f dbbe b0f4 5abe ad22 e7be 3186 513e
00000060: fbb4 b8bd
-0.28562018 0.4991617 -0.12336362 0.69794846 0.13243034 -0.42204964 -0.0938855 0.13653171
-0.6290502 0.012382834 -0.23382884 0.27852365 0.43735078 0.61311185 0.65256506 -0.42735863
-0.56330115 -0.19414371 -0.12297464 -0.0116292015 -0.4283418 -0.21382403 -0.45143643 0.20461346
-0.09018894

pre.0.bias f4 [5]
00000000: d609 053f d58b ae3e 43d6 f63b f1c9 093f
00000010: a001 3a3d
0.51968133 0.34091058 0.007532866 0.53823763 0.045411706

qlayer.weights f4 [6, 5, 3]
00000000: 6fce 9340 32d2 b240 cd1f fa3f 1ec3 3740
00000010: accf 9640 c2c4 8abd d412 1e3e c82e 9e40
00000020: 2a19 1f40 7a48 8a40 74ae af40 2175 4b40
00000030: b52c e53f b9b8 2240 7697 233f 943c 0d40
00000040: 2f17 9b40 9578 9840 17de 163f e22e 1e40
00000050: 5115 5240 bd30 5740 4bbd 013f cee3 ae40
00000060: 8c3c 8a40 61f7 fc3f cb56 cf40 76df d140
00000070: 3a32 ac40 7a2d 8d3e b6fe bd40 eaea 4440
00000080: a7b3 2340 d49a 8e40 269a 9140 968f 3bbe
00000090: de1f 9c40 120d 0540 e3e0 7540 c5ae 7840
000000a0: 9a61 6940 32b3 c340 f79b 9940 744d bc40
000000b0: 6625 a640 38dc ab3f 1f55 7d40 601d 6d40
000000c0: 15e7 5b40 3a21 38be d0c6 cb3f dcce 8e3d
000000d0: d906 053f 0285 8a3f af87 763d fd89 8c40
000000e0: 268d 8240 fe92 7e40 c357 9540 80c1 a03e
000000f0: 8e37 70bd b01b aa40 69af 8640 3324 5d40
00000100: 1e33 2640 cf55 9f40 e010 ef3f 0a48 7e3f
00000110: 45a2 c63f 0e2b 0e40 1cfb 9240 e1b2 c940
00000120: 645b 913c 95f6 b140 e261 e5bc 28d4 ab40
00000130: 69b1 973f 4b3f 8040 c06d 7440 d5c6 a2bd
00000140: 3030 aa40 343a 8b3f dc82 a940 c099 c840
00000150: 603f 2640 ab50 b840 c6ea 5240 319b 9140
00000160: 5614 0f40 f892 8540
4.6189494 5.5881586 1.9540955 2.871284 4.7128506 -0.0677581 0.1543687 4.9432106
2.485911 4.321347 5.4900455 3.179024 1.7904269 2.5425246 0.63902986 2.2068224
4.84658 4.7647195 0.5893263 2.4716115 3.282551 3.3623497 0.50679463 5.465308
4.319891 1.9762994 6.479345 6.558528 5.381131 0.27573758 5.9373426 3.076838
2.55784 4.4564 4.550067 -0.18316492 4.87889 2.0789227 3.841851 3.885667
3.6465821 6.1156244 4.8002887 5.8844547 5.1920652 1.342658 3.9583204 3.704918
3.4359791 -0.17981425 1.5920048 0.06973049 0.51963574 1.0821841 0.06018799 4.3918443
4.07973 3.9777217 4.666963 0.3139763 -0.05864673 5.31588 4.2089124 3.4553344
2.59687 4.9792247 1.8677025 0.9932867 1.5518271 2.2213778 4.593153 6.303086
0.017743774 5.5613503 -0.028000776 5.369648 1.1851016 4.007726 3.8191986 -0.079480805
5.3183823 1.0877137 5.297224 6.2687683 2.597618 5.759847 3.2955794 4.5501943
2.2356162 4.1741905

qlayer.shift f4 [5]
00000000: 3db5 e23e 41ec 193f 0c97 a640 aeae 8c40
00000010: 7f35 053f
0.442789 0.6012612 5.2059383 4.396323 0.52034754

head.0.weight f4 [16, 1]
00000000: f1d4 73bf d0f7 e1be 379e df3e 6a14 db3f
00000010: ad04 e2bf bb5c 0b3f d896 29bf b01e a4bf
00000020: cc18 a2bf e040 c1bd 9e49 873f 8638 ee3f
00000030: 7850 b2bf 0038 9abf 825c ea3f ed9b 8bbe
-0.952468 -0.44134378 0.43675396 1.7115605 -1.7657677 0.5443837 -0.66245794 -1.2821865
-1.2663817 -0.09436202 1.0569341 1.8611 -1.3930807 -1.204834 1.8309481 -0.272674

head.0.bias f4 [16]
00000000: 38b2 f23d e647 62bf 2832 613f 9fef 743e
00000010: 21d5 413f d1f4 07bf c72c 843e 7f41 5e3e
00000020: eb1d 823e 402d 28bf 04c3 2c3f 4c6f 563f
00000030: c36a 233e d583 673e 6ff8 523f 0ec9 2fbe
0.11850399 -0.8839096 0.8796716 0.23919533 0.75715834 -0.53107935 0.25815412 0.21704672
0.2541345 -0.65694046 0.6748507 0.83763576 0.15958695 0.22608884 0.8241033 -0.1716654

head.2.weight f4 [1, 16]
00000000: 17bc 623e 6a2b 40be 73f6 00be e10e 89bf
00000010: 6880 ca3e 1530 fa3d 503e 383e f0fc 083f
00000020: 905e c03e 8ee8 293e 1a12 62be 4a12 18bf
00000030: 7630 2c3f e426 0e3f 33a2 d8be aba7 feba
0.22142063 -0.18766561 -0.12594013 -1.0707666 0.3955109 0.12216202 0.1799252 0.5351095
0.37572145 0.16592619 -0.22077218 -0.59402907 0.67261446 0.5552809 -0.42311248 -0.0019428631
