submissions/1DQuanvolution with Classical FFN/Quanv1D_ClassicalFFN_StronglyEntanglingLayers_kernel.pt (torch, 34911 bytes, 12 tensors)

weight f4 [16, 6, 3]
0	0x3cf453cb	0.029825112
1	0xbde3b8aa	-0.11119206
2	0xbd874108	-0.066042006
3	0xbe23d5ec	-0.15999573
4	0x3d5fedfd	0.054670323
5	0x3f0bc61d	0.5459917
6	0xbe73e779	-0.23818769
7	0xbe89e3c6	-0.2693159
8	0xbcc2c938	-0.02377759
9	0x3d621b40	0.05520177
10	0x3e3457bb	0.17611592
11	0xbd735998	-0.059411615
12	0x3ddd0a1d	0.107929446
13	0xbe480535	-0.19533236
14	0x3e3f5c3f	0.18687533
15	0x3cd33eec	0.02578684
16	0x3e6c7de9	0.23094906
17	0xbd7dd36a	-0.0619692
18	0x3e1dd17f	0.15411948
19	0xbdb74447	-0.0894857
20	0xbe2b6abd	-0.16739936
21	0x3e519a4b	0.20469014
22	0xbe6360da	-0.22204915
23	0xb832409a	-4.2498672e-05
24	0xbd80fd2c	-0.06298289
25	0xbe6e4d49	-0.2327167
26	0xbd93869b	-0.07203408
27	0xbe037a38	-0.12839592
28	0xbde4115c	-0.111361235
29	0xbe3bf8df	-0.18356656
30	0x3dcd4c15	0.10024277
31	0xbe1ad146	-0.15118894
32	0xbdbdbbc6	-0.092643306
33	0x3eab886c	0.3350252
34	0x3f186fc7	0.5954556
35	0xbe85b2da	-0.26113015
36	0x3e5a424d	0.21314354
37	0x3f824815	1.0178248
38	0xbe8a7020	-0.2703867
39	0xbdc1410b	-0.09436234
40	0xbe1c42fe	-0.1525993
41	0xbd1198b4	-0.03554602
42	0x3e1f0817	0.1553043
43	0x3f7058ac	0.938853
44	0x3d9d069f	0.076672785
45	0x3e314c38	0.17314231
46	0xbe5e7191	-0.2172301
47	0xbe6705dc	-0.22560829
48	0x3d3d7683	0.0462556
49	0xbe8711ed	-0.26380864
50	0xbcb13090	-0.021629602
51	0x3e33e1d3	0.17566614
52	0x3edd20d4	0.43189108
53	0xbe1ae0e3	-0.1512485
54	0xbcfff76e	-0.031245913
55	0xbe90d89a	-0.28290254
56	0xbe39c12e	-0.18140098
57	0xbe223a06	-0.15842447
58	0xbe5af92d	-0.21384116
59	0x3d8bb4d2	0.06821598
60	0x3daef1e5	0.085422315
61	0x3dd896a9	0.10575611
62	0xbe0bd1c4	-0.13654238
63	0xbd962d93	-0.07332911
64	0xbde4cf83	-0.11172392
65	0x3da38e14	0.079860836
66	0xbbca0af3	-0.006165856
67	0x3d43e600	0.047826767
68	0xbe677a2c	-0.22605199
69	0x3e54a241	0.2076502
70	0xbcb05804	-0.021526344
71	0xbde8d1d7	-0.11368149
72	0x3d7924fb	0.060826283
73	0x3ee9d392	0.45669228
74	0x3df0678e	0.117385015
75	0x3e69741e	0.22798201
76	0xbe24fa43	-0.16111092
77	0x3e92c72b	0.28667578
78	0xbe246880	-0.16055489
79	0x3ef9768d	0.4872326
80	0xbdf06760	-0.11738467
81	0xbe578fc8	-0.21050942
82	0xbc373401	-0.011181832
83	0xbe0cf2d0	-0.137645
84	0xbd9c4b59	-0.07631559
85	0xbd009595	-0.031392653
86	0x3e8bfb22	0.27340037
87	0x3e249bb4	0.16075021
88	0x3d14c517	0.036320772
89	0xbd8fc175	-0.07019321
90	0xbe335522	-0.17512944
91	0x3e658264	0.22413021
92	0xbe13399a	-0.14377442
93	0x3ee4ff58	0.44726062
94	0xbe0be547	-0.13661681
95	0xbe298008	-0.16552746
96	0x3d3cb8a5	0.04607453
97	0x3e0b1964	0.13583905
98	0x3db05a68	0.086109936
99	0xbd0d3ab6	-0.03447982
100	0xbd93938a	-0.07205875
101	0x3eb90775	0.36138502
102	0xbd1c5c86	-0.038174175
103	0xbc9da0b3	-0.019241666
104	0xbe8a8e4c	-0.2706169
105	0xbe1bcd23	-0.15214972
106	0xbe48210f	-0.19543861
107	0x3e41a9b5	0.18912394
108	0xbd20a8db	-0.039223533
109	0xbe3e849c	-0.18605274
110	0x3e0a6700	0.13515854
111	0x3f13e7b2	0.57775414
112	0x3de4b8b4	0.11168042
113	0xbe9a1747	-0.30095884
114	0xbdd0b069	-0.101898976
115	0xbe2c9714	-0.16854507
116	0xbe4c4ece	-0.19951937
117	0xbe523e71	-0.20531632
118	0x3d76515c	0.060136184
119	0x3d179533	0.03700752
120	0x3eb0c779	0.34527186
121	0x3d805204	0.06265643
122	0xbde5c092	-0.112183705
123	0xbe9ffb16	-0.3124625
124	0x3e1e821f	0.15479325
125	0xbe82628e	-0.25465816
126	0xbd85eb55	-0.06539027
127	0xbe48cc03	-0.19609074
128	0x3e9f0671	0.31059602
129	0x3e336078	0.17517269
130	0xbd27ab3f	-0.040934797
131	0xbdda782c	-0.10667452
132	0xbe34face	-0.176738
133	0xbcca7cc4	-0.024717696
134	0x3c22e196	0.009941479
135	0x3d7e0985	0.062020797
136	0x3e8a24f1	0.2698131
137	0xbe4cd7f3	-0.20004253
138	0x3dcd1d52	0.10015358
139	0xbd464caa	-0.048412956
140	0xbdaf36b3	-0.08555355
141	0xbca8197f	-0.02051997
142	0x3e4cc5cd	0.1999733
143	0xbd81b488	-0.06333262
144	0x3da79e19	0.081844516
145	0x3e28ded7	0.16491257
146	0x3d934c10	0.07192242
147	0xbe064b06	-0.13114557
148	0xbe8f8b1c	-0.2803582
149	0xbebe4aad	-0.37166348
150	0x3db31dda	0.08745928
151	0x3daeea43	0.085407756
152	0xbda7efd9	-0.08200044
153	0x3e616e94	0.22014838
154	0xbe122755	-0.14272816
155	0x3d26221c	0.040559873
156	0xbce50a6e	-0.027959075
157	0xbe10fbbc	-0.14158529
158	0xbe38da9b	-0.18052141
159	0x3e0686c4	0.13137347
160	0x3e73461c	0.23757213
161	0x3f0b8b02	0.54508984
162	0xbe4c1653	-0.19930391
163	0x3e9b6faa	0.3035863
164	0xbe56330a	-0.20917907
165	0xbe5bd28a	-0.21467033
166	0xbd859c9d	-0.06524012
167	0xbe5db2b0	-0.21650195
168	0x3ddca339	0.1077332
169	0x3e885fc6	0.2663557
170	0xbe9645db	-0.2935017
171	0x3d362d17	0.044476595
172	0x3e3a785d	0.18209977
173	0xbeaa4c49	-0.33261326
174	0xbe382ec9	-0.17986597
175	0x3dc0007a	0.09375091
176	0xbe6eca43	-0.23319344
177	0x3e750d9b	0.23930971
178	0x3eba4468	0.36380315
179	0xbe314c94	-0.17314368
180	0x3f44c492	0.7686244
181	0xbe751b19	-0.23936118
182	0x3d41813d	0.04724239
183	0x3e0bdee8	0.1365925
184	0xbd8afb23	-0.06786182
185	0x3e263e2f	0.16234659
186	0x3f4f1d7a	0.8090435
187	0x3c7e9bbb	0.015540059
188	0xbe93bde3	-0.2885581
189	0xbe1178b4	-0.14206201
190	0xbe8ddeba	-0.2770899
191	0xbda9daf8	-0.08293718
192	0x3e62df19	0.22155418
193	0xbe07bb66	-0.1325508
194	0x3e2471a2	0.16058972
195	0xbe761570	-0.24031615
196	0xbe60e982	-0.21964076
197	0xbeed601b	-0.46362385
198	0x3edf5a95	0.43623796
199	0xbe831ca9	-0.25607803
200	0x3e44847a	0.19191161
201	0xbebdcb10	-0.37068987
202	0xbdfa877e	-0.12232874
203	0x3e6719bd	0.22568412
204	0x3ec0c582	0.37650687
205	0xbe6b11dd	-0.22956033
206	0xbd825e29	-0.06365616
207	0x3e5b6ff5	0.21429427
208	0x3db06dd1	0.08614696
209	0xbe5b9f90	-0.21447587
210	0xbd680821	-0.056648377
211	0xbe18358e	-0.1486418
212	0xbddf5c65	-0.10906295
213	0x3e8a8974	0.27057993
214	0xbea0d1cf	-0.3141007
215	0x3d1439a8	0.036187798
216	0xbe6fce84	-0.23418623
217	0x3e38923a	0.18024531
218	0xbea0c5a7	-0.31400797
219	0xbb4f7591	-0.0031655768
220	0xbe517ff3	-0.20458965
221	0xbeabebed	-0.33578435
222	0xbdd26fc4	-0.10275224
223	0x3e22003f	0.15820406
224	0xbe3c6ad9	-0.18400134
225	0x3e1363f6	0.14393601
226	0xbdc2fec5	-0.0952125
227	0xbdf8f899	-0.12156791
228	0x3cfd5eae	0.030928936
229	0xbe787114	-0.24261886
230	0x3d8b82b8	0.06812042
231	0xbd9f6ae4	-0.0778406
232	0x3e57a79a	0.21060029
233	0xbe3b1b13	-0.18272047
234	0xbe235206	-0.15949258
235	0x3e8457b3	0.2584816
236	0x3c266991	0.010157005
237	0xbec1bb55	-0.37838235
238	0xbdc841d7	-0.09778183
239	0x3c2a2057	0.010383687
240	0xbe8968b5	-0.26837698
241	0x3e5e6da6	0.21721515
242	0x3e29a255	0.16565831
243	0xbeafd93e	-0.3434543
244	0xbe6def0f	-0.23235725
245	0xbd8ed507	-0.069742255
246	0xbe80d37f	-0.2516136
247	0xbdf33856	-0.118759796
248	0x3e4ef3db	0.20210211
249	0xbdd10365	-0.102057256
250	0xbe733d73	-0.2375391
251	0x3cd51d19	0.026014851
252	0xbe0bf684	-0.13668257
253	0xbe72cf6a	-0.23711935
254	0x3d32d0b3	0.043656062
255	0xbd67ab68	-0.05655995

bias f4 [16]
0	0x3d9720df	0.073793165
1	0x3df54f36	0.11977999
2	0x3d6fbb24	0.05852808
3	0xbe6f9684	-0.23397261
4	0x3e82ef67	0.25573274
5	0x3cb57ac2	0.022153262
6	0x3d1eca9a	0.038767435
7	0x3e250694	0.1611579
8	0x3e353a86	0.17698106
9	0xbe0b9923	-0.13632636
10	0x3c9e444a	0.019319672
11	0x3d8366d6	0.06416099
12	0xbe347baf	-0.17625307
13	0x3d4fc4bc	0.05072473
14	0xbe0fdca7	-0.14049016
15	0xbdc00594	-0.09376064

weight f4 [32, 16, 3]
0	0x3e1d78d2	0.1537812
1	0x3c050457	0.0081187105
2	0xbe288a5c	-0.1645903
3	0xbdc284c1	-0.09497977
4	0x3d94e5e7	0.07270413
5	0x3d8eb248	0.06967598
6	0x3ca6f486	0.02038027
7	0xbdf09e88	-0.117489874
8	0xbe04bbea	-0.12962309
9	0xbe423cc6	-0.18968496
10	0x3d90aac4	0.07063821
11	0xbbe4cdd4	-0.0069825444
12	0x3c7da116	0.0154803
13	0xbe08dff0	-0.13366675
14	0x3dd4fd93	0.10399928
15	0xbdfb09da	-0.122577384
16	0xbe5f4209	-0.21802534
17	0x3c93bdc6	0.018034827
18	0x3c871d25	0.01649339
19	0xbda09ccc	-0.07842407
20	0xbdfa3cb3	-0.12218609
21	0xbdcfcfb2	-0.101470366
22	0x3df63385	0.12021545
23	0xbd685c9a	-0.056728937
24	0x3ce903b1	0.028444143
25	0xbde7bb51	-0.11315025
26	0xbe505ed8	-0.2034868
27	0x3d6ba7e0	0.057533145
28	0xbdc62ecd	-0.09676895
29	0xbcda58ee	-0.026653733
30	0xbec7c897	-0.39020225
31	0x3e72ee8a	0.23723808
32	0xbdf7cf86	-0.12100129
33	0xbd3365ab	-0.04379813
34	0xbdc99779	-0.09843344
35	0x3e0455cc	0.12923354
36	0x3c3c9043	0.011509004
37	0x3dfc5fe8	0.1232298
38	0xbd54702f	-0.0518648
39	0xbc9ff2ec	-0.019525014
40	0xbd973943	-0.07383969
41	0x3dedede4	0.1161764
42	0x3e08f0f8	0.13373172
43	0xbe645ebc	-0.22301763
44	0x3d901dbb	0.07036921
45	0x3e03a580	0.12856102
46	0x3d8b50f2	0.068025485
47	0x3b1a32e1	0.0023528861
48	0x3e258953	0.16165666
49	0xbd9f43fb	-0.07776638
50	0xbe03cbd7	-0.12870727
51	0x3e3e8d12	0.18608502
52	0xbdc3fb6d	-0.0956944
53	0xbd98f2e4	-0.07468203
54	0xbe19aac9	-0.15006556
55	0xbdf99138	-0.121859014
56	0xbcbf5e95	-0.02336053
57	0x3dc92fa2	0.09823538
58	0x3df97598	0.12180632
59	0xbd25303c	-0.040329203
60	0xbe66eaab	-0.22550456
61	0x3e6e1e7f	0.23253821
62	0xbdce4ecb	-0.10073622
63	0xbd8128bc	-0.063065976
64	0xbc1a7c64	-0.009429071
65	0x3e5fc022	0.21850637
66	0x3d69acdb	0.057049613
67	0xbe365d9a	-0.17809144
68	0x3e45bf07	0.19311152
69	0xbc841327	-0.016122414
70	0x3bd3b909	0.006461267
71	0x3d8fa26d	0.07013402
72	0xbd6eea91	-0.05832917
73	0x3d837efb	0.06420704
74	0x3de141b3	0.10998859
75	0x3cf68a9e	0.030095395
76	0x3c9e3f2a	0.019317228
77	0xbd6e8d86	-0.058240436
78	0x3e836a61	0.25667098
79	0x3d8b8a5f	0.068135016
80	0xbe016c00	-0.12638855
81	0x3df9dd85	0.122004546
82	0x3cd0f158	0.025505707
83	0xbe0928fd	-0.13394542
84	0x3c14ed21	0.009089739
85	0xbda563a0	-0.080756426
86	0xbe6a78d0	-0.22897649
87	0xbe8fab8d	-0.2806057
88	0xbcf05a88	-0.029340044
89	0x3dd46389	0.10370547
90	0xbe1b3be9	-0.15159573
91	0x3c99d504	0.018778332
92	0x3da527be	0.08064221
93	0x3dd17838	0.10228008
94	0xbcd65dc1	-0.026167752
95	0xbd78df24	-0.06075968
96	0x3d5fa3f3	0.054599714
97	0x3d28aeb6	0.041182242
98	0xbda151fd	-0.07876966
99	0x3d35ffe0	0.044433475
100	0xbddb1fa0	-0.10699391
101	0xbbac4ff9	-0.005258557
102	0xbe235b1f	-0.15952729
103	0xbe913bb0	-0.2836585
104	0xbe7615f0	-0.24031806
105	0xbc42a731	-0.011880682
106	0x3e78188f	0.24228118
107	0xbd1b2f07	-0.037886646
108	0xbe834d25	-0.25644794
109	0x3e6dd02d	0.23223944
110	0xbe01703e	-0.12640473
111	0xbdb9ae1b	-0.09066411
112	0x3e041532	0.1289871
113	0x3d3ce01e	0.046112172
114	0x3d87f9c0	0.06639433
115	0x3d94d6bd	0.072675206
116	0x3e674009	0.22583021
117	0x3e050586	0.12990388
118	0xbd3ca814	-0.04605873
119	0xbe04d2d7	-0.12971054
120	0xbd81c73b	-0.06336828
121	0xbd9f8fba	-0.077910855
122	0x3e002eb8	0.12517822
123	0x3b111b24	0.0022141421
124	0x3beb9bc0	0.0071901977
125	0xbe4dc6b3	-0.20095329
126	0x3e9ff74d	0.31243363
127	0x3e46a4c1	0.19398786
128	0xbebffc40	-0.3749714
129	0x3dec5daa	0.115413025
130	0x3e0c5ff9	0.13708486
131	0x3d218a54	0.03943856
132	0x3c927cf2	0.017881844
133	0xbc3f1ae5	-0.011664127
134	0x3d904a92	0.07045473
135	0xbe804266	-0.25050658
136	0x3d96282f	0.07331883
137	0x3d8da43b	0.0691609
138	0x3c5d9338	0.013523869
139	0x3e04806f	0.12939619
140	0xbd451326	-0.048113964
141	0x3e113c63	0.14183192
142	0xbbf10b0d	-0.0073560537
143	0x3d9c0ae2	0.07619263
144	0xbe838c17	-0.25692818
145	0xbe96dd59	-0.2946575
146	0x3eb3b282	0.35097128
147	0xbbd3f770	-0.006468706
148	0xbe01a8f7	-0.12662111
149	0x3c99885c	0.018741779
150	0xbd3682ff	-0.04455852
151	0x3d71866a	0.058966078
152	0x3e8e990b	0.27851138
153	0xbe6f61cb	-0.23377149
154	0xbe7f3d23	-0.24925666
155	0x3cb2a328	0.021806315
156	0x3d332501	0.04373646
157	0xbe8cdc65	-0.27511898
158	0x3dddce3c	0.10830352
159	0x3d92417f	0.07141399
160	0x3e620389	0.22071661
161	0xbe110285	-0.14161117
162	0x3e037204	0.12836462
163	0xbe574b32	-0.21024778
164	0xbcb08ef9	-0.02155255
165	0xbd3206af	-0.043463405
166	0x3d1cfd51	0.03832752
167	0xbe044114	-0.1291545
168	0x3d2426df	0.040076133
169	0x3e18176e	0.14852688
170	0xbd1a9429	-0.037738953
171	0x3e043add	0.1291308
172	0x3d0735e1	0.033010367
173	0xbf5ec469	-0.8701845
174	0xbf084bce	-0.5324067
175	0xbdab82d1	-0.083745606
176	0x3eb3ee6c	0.3514284
177	0x3ad21495	0.0016027862
178	0x3dc7663f	0.09736299
179	0xbd84874a	-0.06471117
180	0xbe0bc81e	-0.13650557
181	0x3c959b55	0.018262545
182	0xbe93900e	-0.28820843
183	0x3d4b38ce	0.04961472
184	0x3d94a545	0.07258085
185	0xbd5968bc	-0.053078398
186	0xbeb51349	-0.35366276
187	0xbea8ca82	-0.32967
188	0xbe28c5f4	-0.16481763
189	0xbc68817e	-0.01419103
190	0x3db98c0d	0.09059916
191	0xbbc40ded	-0.0059831054
192	0xbcc33040	-0.023826718
193	0x3d8de138	0.06927723
194	0x3c6876ac	0.01418845
195	0xbd483417	-0.0488778
196	0xbd683e94	-0.056700304
197	0x3db6992c	0.08915934
198	0x3da491b5	0.08035604
199	0xbed62d36	-0.41831368
200	0xbd5d5c1c	-0.05404292
201	0xbe2e358b	-0.17012613
202	0x3df27f2f	0.118406646
203	0x3edeb849	0.43499973
204	0xbe2f3aff	-0.17112349
205	0xbefe7397	-0.49697563
206	0x3cd59fee	0.026077237
207	0xbd8d6c92	-0.06905474
208	0xbe9a6bbb	-0.30160317
209	0xbe5c6976	-0.21524605
210	0xbc456e00	-0.012050152
211	0x3d4bf4bc	0.049793944
212	0x3dd72459	0.1050498
213	0xbd95d882	-0.07316686
214	0xbe16c582	-0.14723781
215	0xbe00276c	-0.12515038
216	0x3d85b60f	0.065288655
217	0xbd967442	-0.07346393
218	0xbe00995c	-0.12558502
219	0x3db993cd	0.09061394
220	0x3e2e042e	0.16993782
221	0xbde2019b	-0.110354625
222	0x3d80164f	0.06254255
223	0x3caee3e6	0.021348905
224	0xbe17f660	-0.14840078
225	0x3d956028	0.07293731
226	0x3c855e2a	0.016280252
227	0x3c93fa84	0.018063791
228	0x3d7a0413	0.06103904
229	0x3e2c6eb5	0.16839106
230	0xbe171a0e	-0.14756033
231	0x39f91eca	0.0004751592
232	0xbd89a2dd	-0.06720517
233	0x3d862398	0.06549758
234	0xba10e9e6	-0.00055280176
235	0xbdf7f3bd	-0.12107036
236	0x3d50798e	0.050897174
237	0x3bfdc93a	0.0077449353
238	0x3d1afcd8	0.037838787
239	0x3db39214	0.087680966
240	0x3c39a1d5	0.011330088
241	0x3d9d5324	0.076818734
242	0x3e75d020	0.24005175
243	0x3d73d53a	0.05952952
244	0xbe277951	-0.16354872
245	0xbe76207e	-0.24035832
246	0xbd79f5d7	-0.061025467
247	0xbdb43cbe	-0.08800648
248	0xbccf3853	-0.025295412
249	0x3da30093	0.07959094
250	0xbd3df35a	-0.046374656
251	0xbe146f3f	-0.14495562
252	0xbcad8824	-0.021183081
253	0x3d94eced	0.072717525
254	0x3e258989	0.16165747
255	0x3e9e4f4f	0.30919883

bias f4 [32]
0	0x3d40f7c5	0.04711129
1	0x3de3d5ca	0.111247614
2	0x3dbb289c	0.09138605
3	0xbd71751a	-0.058949567
4	0x3db7f84d	0.089829065
5	0xbdd582d1	-0.10425342
6	0xbe2e510f	-0.17023109
7	0x3de65166	0.11245994
8	0xbc225d69	-0.009909966
9	0xbd9b34d6	-0.07578437
10	0xbced5c90	-0.028974801
11	0x3dc3a535	0.09552995
12	0x3d527384	0.051379696
13	0xb98c1bba	-0.0002672354
14	0xbe37276e	-0.17886135
15	0xbe2c0ffb	-0.16802971
16	0xbca73ceb	-0.02041479
17	0xbda2820c	-0.07934961
18	0xbc42117f	-0.011844992
19	0xbde5efdc	-0.1122739
20	0x3c09852b	0.008393566
21	0xbe120296	-0.14258799
22	0x3cb00a93	0.021489417
23	0xbc4b33ba	-0.012402469
24	0x3cd9e747	0.02659954
25	0xbe2e7146	-0.17035398
26	0xbe06fdcf	-0.13182758
27	0x3e0037eb	0.12521331
28	0x3d178475	0.036991555
29	0xbb49257d	-0.003069251
30	0xbd235cc4	-0.03988339
31	0xbe177a80	-0.14792824

weight f4 [64, 32]
0	0x3d81a7a1	0.06330801
1	0xbd2a6832	-0.041603275
2	0x3dc22238	0.09479183
3	0x3ddf882e	0.10914646
4	0xbd69ff86	-0.05712845
5	0xbd652c0a	-0.055950202
6	0x3df3c596	0.11902921
7	0xbe0064c3	-0.12538438
8	0xbcb8f717	-0.02257876
9	0x3e7b7727	0.24557172
10	0x3de24ddc	0.11050007
11	0xbde311d2	-0.11087383
12	0x3e2593ec	0.16169709
13	0x3ddbba6d	0.10728917
14	0xbd5d6aec	-0.054057047
15	0x3d5c69fa	0.053812005
16	0x3e3781f7	0.17920671
17	0xbce90217	-0.02844338
18	0x3dda4208	0.10657126
19	0xbd83419e	-0.06409
20	0xbdf3690a	-0.11885269
21	0x3d8348f5	0.064104
22	0x3e32e615	0.17470582
23	0xbd9b096b	-0.07570156
24	0xbdcbd4d9	-0.09952707
25	0x3d95fbbd	0.07323406
26	0xbc4c8f49	-0.012485334
27	0x3de489a0	0.111590624
28	0x3e796937	0.24356543
29	0xbebc8c09	-0.36825588
30	0x3e18260b	0.14858262
31	0xbe0ab0b2	-0.13543966
32	0x3d773af6	0.060358964
33	0x3e17723e	0.14789674
34	0x3ca2b8d8	0.019863531
35	0x3d9ff953	0.07811227
36	0xbdae8ccb	-0.08522948
37	0x3e441802	0.19149783
38	0xbc735742	-0.014852347
39	0xbd99206b	-0.07476886
40	0x3ce0507c	0.027382128
41	0x3dd37f43	0.103270076
42	0x3eb389b7	0.35066006
43	0x3c536121	0.012901575
44	0xbc9039e3	-0.017605728
45	0x3dd9ab21	0.106283434
46	0xbdd3c4fa	-0.10340305
47	0xbc2827b7	-0.010263375
48	0xbe10b1a9	-0.14130272
49	0x3eae53bb	0.34048256
50	0x3da2c3b6	0.07947485
51	0xbebf1553	-0.37320957
52	0x3cb5f136	0.022209745
53	0x3e2a5082	0.16632274
54	0x3e1dcf77	0.15411173
55	0xba90aad6	-0.0011037241
56	0x3e39c63d	0.18142028
57	0x3e2140f3	0.15747432
58	0x3df31a06	0.11870198
59	0x3e843f97	0.25829765
60	0x3eb0368b	0.34416613
61	0xbeb00d5d	-0.34385195
62	0xbd8df76d	-0.06931958
63	0xbd311896	-0.043236338
64	0xbdca1765	-0.098677434
65	0x3e071311	0.13190867
66	0x3db0d25a	0.086338714
67	0xbdc215df	-0.09476828
68	0x3e8f970a	0.2804492
69	0x3e6d8ab8	0.23197448
70	0x3d6174d8	0.05504307
71	0x3e37164b	0.17879598
72	0xbcc3ddfd	-0.023909563
73	0x3e8d4b41	0.27596477
74	0x3ea9232d	0.3303465
75	0xbea6b0dc	-0.32556808
76	0x3e392c5c	0.18083328
77	0x3bdd06ee	0.006745211
78	0xbd6a7265	-0.057238
79	0xbd839df4	-0.064266115
80	0xbcd9139d	-0.02649861
81	0x3e832514	0.25614226
82	0x3ebf7545	0.37394157
83	0xbde8f03e	-0.113739476
84	0x3e26785b	0.1625685
85	0x3d0d14f5	0.034443814
86	0x3e0f18a9	0.13974251
87	0xbe5dc3bd	-0.216567
88	0x3d5e8bb5	0.054332454
89	0xbe11ce3e	-0.14238831
90	0x3dbc61c8	0.09198338
91	0x3e3da66e	0.18520519
92	0x3e847cba	0.2587641
93	0xbe8ec767	-0.27886507
94	0x3d32b27d	0.04362725
95	0xbd9ea409	-0.07746131
96	0xbd10e0b7	-0.035370555
97	0xbe135674	-0.14388448
98	0x3dc2890f	0.09498798
99	0xbdf630c5	-0.12021021
100	0x3dde817e	0.108645424
101	0xbd5a2212	-0.05325515
102	0xbe22ea26	-0.15909633
103	0x3e2c1884	0.16806227
104	0xbe39d4b4	-0.18147546
105	0x3df87c2e	0.121330604
106	0x3e4cc6cb	0.19997708
107	0xbd229ebc	-0.039702162
108	0xbd4827e7	-0.04886618
109	0x3decf7d9	0.11570711
110	0x3dad6350	0.08466208
111	0x3ccdf910	0.025143176
112	0xbc9862c0	-0.018601775
113	0x3dc5219b	0.0962555
114	0x3ded3822	0.11582972
115	0xbdd0907e	-0.1018381
116	0xbc93f215	-0.01805977
117	0x3d842672	0.06452645
118	0xbde144fd	-0.109994866
119	0xbb129850	-0.0022368617
120	0x3de0c879	0.10975737
121	0x3d4d43a7	0.050113346
122	0x3e7d0fdf	0.24713086
123	0x3e804dc4	0.2505933
124	0x3da0a017	0.07843035
125	0xbec619b4	-0.38691485
126	0x3d5d7fc8	0.05407694
127	0xbe1d0aeb	-0.15336196
128	0x3d249965	0.04018535
129	0x3d2b89d1	0.04187948
130	0x3db0cb21	0.08632494
131	0xbcbcde27	-0.02305515
132	0xbdfe7853	-0.12425294
133	0xbdf8f1e6	-0.121555135
134	0xbe0c0f8e	-0.13677809
135	0x3e17efcb	0.14837568
136	0xbe117399	-0.14204253
137	0xbddd8652	-0.10816635
138	0x3e33f151	0.17572524
139	0x3e571c0c	0.21006793
140	0x3bb0a7f7	0.0053911167
141	0x3e0be465	0.13661344
142	0x3d924f36	0.071440145
143	0x3e0e0bba	0.13871661
144	0xbdd6d291	-0.10489381
145	0xbea5e471	-0.3240085
146	0xbd7e71c3	-0.06212021
147	0x3dd4b44c	0.103859514
148	0xbdef32ed	-0.11679635
149	0x3da8dd7f	0.08245372
150	0x3b0fa20b	0.0021916653
151	0x3df923f9	0.12165064
152	0xbe4a4645	-0.19753368
153	0x3e325b45	0.17417629
154	0xbe2d7ff2	-0.16943339
155	0xbd931ae1	-0.07182861
156	0x3d427e78	0.04748389
157	0x3e6a993b	0.22910015
158	0xbe6eed8c	-0.23332804
159	0xbdba050e	-0.09082995
160	0x3d8d42b6	0.0689749
161	0xbdfb19a9	-0.12260754
162	0x3cd0bba8	0.025480106
163	0x3db95fd5	0.09051482
164	0xbd3fc16e	-0.04681533
165	0xbd5929c0	-0.05301833
166	0xbe4186d3	-0.18899088
167	0x3c648e01	0.013949872
168	0xbd1195e8	-0.035543352
169	0x3ea01e38	0.31273055
170	0x3d32f9ea	0.043695368
171	0xbe6cf7cf	-0.23141406
172	0x3e48b7dc	0.19601387
173	0xbdadac2d	-0.084801055
174	0xbe6c305f	-0.23065327
175	0xbd93844c	-0.07202968
176	0x3ab97ba2	0.0014151225
177	0xbe52544a	-0.20539966
178	0xbe15cd8a	-0.14629188
179	0xbe09e3eb	-0.1346585
180	0xbdef50ea	-0.11685355
181	0x3df6996d	0.120409824
182	0x3dee5766	0.11637764
183	0xbf0642fa	-0.5244595
184	0x3c64dc5f	0.013968556
185	0x3d832793	0.064040326
186	0xbdc39365	-0.09549598
187	0xbcb72312	-0.02235559
188	0xbe1993ec	-0.14997834
189	0x3e18dd96	0.14928278
190	0xbe282ff8	-0.16424549
191	0xbd383ea6	-0.04498162
192	0x3e6725e3	0.22573046
193	0xbe07cb0c	-0.1326105
194	0x3e810d02	0.25205237
195	0xbe178d7b	-0.14800064
196	0xbd91e08e	-0.071229085
197	0x3e93681d	0.2879037
198	0xbd852c6d	-0.06502614
199	0x3d370117	0.044678774
200	0x3cdf1cbd	0.027235383
201	0x3e48c6c7	0.19607078
202	0x3eb0cdfd	0.34532157
203	0xbd812a17	-0.06306856
204	0x3e462baf	0.19352601
205	0x3e59f360	0.21284246
206	0xbcabdf9d	-0.02098065
207	0x3e243b4c	0.16038245
208	0xbdf30189	-0.11865527
209	0x3e00ede2	0.12590745
210	0xbc044e3f	-0.008075296
211	0xbe7be5f2	-0.24599436
212	0x3ce55fa6	0.02799971
213	0x3d074c7d	0.03303193
214	0x3e2492b1	0.16071583
215	0xbe2a833f	-0.16651629
216	0xbda6b30e	-0.08139621
217	0xbd0de459	-0.034641597
218	0x3e798584	0.24367338
219	0x3c8e2721	0.017352642
220	0x3e3c4fc8	0.18389809
221	0xbece4754	-0.40288794
222	0x3d607ba6	0.05480542
223	0xbd8b870f	-0.0681287
224	0x3dc2a3b6	0.09503882
225	0x3e36eb2a	0.17863145
226	0x3d0891c3	0.033342134
227	0xbe3d8c04	-0.18510443
228	0x3dbcae9f	0.09212994
229	0x3e624dee	0.2210004
230	0xbe098a64	-0.13431698
231	0xbca49c8b	-0.020094177
232	0xbe1bee01	-0.1522751
233	0x3ebebffb	0.37255844
234	0x3e53bb8f	0.20677017
235	0xbe82362b	-0.25431952
236	0xbba91cae	-0.0051608896
237	0x3e3b6143	0.18298821
238	0x3e1a69d0	0.15079427
239	0xbde046d2	-0.10951008
240	0x3d35b072	0.044357724
241	0x3e84d0f6	0.25940675
242	0x3d830479	0.063973375
243	0xbde086ab	-0.10963186
244	0xbcd136ca	-0.02553882
245	0xbcfefbf1	-0.031125994
246	0xbcff94d1	-0.03119889
247	0xbde90509	-0.113779135
248	0x3d16cce3	0.03681649
249	0xbda41aa8	-0.08012897
250	0x3e3f719e	0.18695685
251	0xbbb556b7	-0.005534019
252	0x3e78c0c9	0.24292292
253	0xbec40f47	-0.38292906
254	0xbe23eaab	-0.16007487
255	0xbd958416	-0.07300584

bias f4 [64]
0	0xbc83aedf	-0.016074596
1	0xbd2dd923	-0.042443406
2	0xbda6e8e9	-0.08149893
3	0x3de06feb	0.10958847
4	0xbe3adb2f	-0.18247674
5	0x3de4bd55	0.11168925
6	0x3c23c989	0.00999678
7	0x3e22a2d4	0.15882427
8	0x3c9b3775	0.018947342
9	0x3e22aa97	0.15885387
10	0xbd9efc23	-0.07762935
11	0x3de7afcd	0.11312828
12	0xbe1487f3	-0.14504986
13	0x3d3c23c5	0.04593255
14	0xbd14aa12	-0.036295004
15	0x3d8b6726	0.068067834
16	0x3d16d0b8	0.036820143
17	0xbddd336e	-0.10800825
18	0x3e2c319e	0.16815802
19	0x3d368453	0.044559788
20	0x3d947615	0.07249085
21	0xbd751dbd	-0.059842814
22	0x3d89f0c7	0.06735378
23	0xbd1ad2d2	-0.03779871
24	0x3e12917c	0.1431331
25	0x3d22af9f	0.039718267
26	0xbdbe130b	-0.09280976
27	0xbdcf7955	-0.10130564
28	0xbd92401c	-0.07141134
29	0x3dc9b4f9	0.09848971
30	0xbd85d4b2	-0.06534709
31	0xbe3a403d	-0.18188567
32	0x3d446e84	0.04795696
33	0xbe062c58	-0.13102853
34	0x3d14a097	0.036285963
35	0x3e1372b6	0.14399227
36	0x3e04cc94	0.12968665
37	0xbd413356	-0.0471681
38	0xbe289c9f	-0.16465996
39	0x3dab6f44	0.083708316
40	0x3ddb1f87	0.10699373
41	0xbdade6fc	-0.084913224
42	0xbda1d9fb	-0.079029046
43	0x3d75721a	0.05992327
44	0xbc4dedc2	-0.012568893
45	0x3e1a9300	0.15095139
46	0x3bbe335a	0.0058044614
47	0xbc4a876e	-0.0123613905
48	0x3d11c6ad	0.035589863
49	0x3de7ea56	0.11323993
50	0x3db4861a	0.0881464
51	0x3e22260b	0.15834825
52	0xbae8784f	-0.001773605
53	0x3e0dcb1c	0.13847011
54	0xbe1cf94d	-0.15329476
55	0xbc7b36b9	-0.015332871
56	0xbe256c4b	-0.16154592
57	0xbdf3920d	-0.11893091
58	0xbd32bf87	-0.043639686
59	0x3dcb8057	0.09936588
60	0x3d915780	0.070967674
61	0xb9a3d125	-0.00031245608
62	0xbdb676b8	-0.089093626
63	0x3d443dc1	0.047910456

weight f4 [32, 64]
0	0xbde112bc	-0.109899014
1	0x3dba19fc	0.090869874
2	0x3cbbbd28	0.022917345
3	0xbd490bf4	-0.049083665
4	0x3d08a530	0.03336066
5	0x3d076324	0.033053532
6	0xbd108dc4	-0.03529145
7	0xbdd8b1aa	-0.10580762
8	0xbb850ac0	-0.0040601194
9	0x3d14f610	0.036367476
10	0xbdc22488	-0.09479624
11	0x3bd70680	0.006562054
12	0xbd27fa9c	-0.041010484
13	0x3ddd4ffc	0.108062714
14	0x3d2ff2b0	0.042956054
15	0xbd8eb56a	-0.06968196
16	0x3d9240aa	0.0714124
17	0xbbebf120	-0.007200375
18	0xbde7b0aa	-0.11312993
19	0xbcf98298	-0.03045778
20	0xbcad37f0	-0.021144837
21	0x3d804c86	0.06264596
22	0x3de59fc0	0.112121105
23	0x3dfa2e58	0.122158706
24	0xbde6ac94	-0.112633854
25	0xbd8c8eb0	-0.06863153
26	0xbd59ded8	-0.053191036
27	0x3de1da48	0.11027962
28	0x3c8973e8	0.016778901
29	0xbdd1cb72	-0.10243882
30	0x3cc42ab0	0.023946136
31	0x3dcea4ce	0.10090028
32	0xbd8a274e	-0.06745778
33	0xbd700aa4	-0.058603898
34	0x3d725908	0.059166938
35	0xbcb67238	-0.02227126
36	0xbdfab2d4	-0.1224114
37	0xbd9fe314	-0.078069836
38	0xbddcb282	-0.10776235
39	0x3c4677b0	0.012113497
40	0xbd852afc	-0.06502339
41	0x3dfe9a0e	0.12431727
42	0x3dc45c20	0.09587884
43	0x3d7ffdbc	0.06249784
44	0x3d1a0d68	0.03761044
45	0xbd748e14	-0.05970581
46	0xbca8daf8	-0.020612225
47	0x39f60400	0.00046923757
48	0xbd9e88f4	-0.077409655
49	0xbdd7833e	-0.10523079
50	0xbde5c3c6	-0.112189814
51	0xbdf4ab1e	-0.119467005
52	0xbbc90240	-0.0061343014
53	0xbddaa2aa	-0.10675557
54	0x3df1dd2c	0.11809763
55	0xbdee9456	-0.116493866
56	0x3dc3258e	0.09528647
57	0x3dfed724	0.124433786
58	0xbd48f878	-0.049065083
59	0xbcbafba0	-0.022825062
60	0x3daa6d04	0.08321574
61	0xbcf67de0	-0.030089319
62	0x3cb888d8	0.02252619
63	0xbdcd2cf8	-0.10018343
64	0xbdff7dfa	-0.124752
65	0xbd0d816c	-0.034547254
66	0xbc0ca660	-0.008584589
67	0xbd8d5d64	-0.069025785
68	0x3d097fb4	0.033569053
69	0xbd8a96de	-0.06767057
70	0x3dc68c82	0.096947685
71	0xbcde2200	-0.027115822
72	0xbdb5c652	-0.08875717
73	0xbd80737e	-0.062720284
74	0x3df75290	0.120762944
75	0xbcc0c528	-0.023531511
76	0xbd72b384	-0.05925323
77	0xbdc14838	-0.09437603
78	0x3dcff9f2	0.10155095
79	0xbdef9164	-0.11697653
80	0x3de47d74	0.11156741
81	0xbc7f77e0	-0.015592545
82	0x3c12fed0	0.008971885
83	0xbdccf61c	-0.10007879
84	0x3dcd2ec0	0.100186825
85	0xbd5faa98	-0.05460605
86	0xbd9c43ae	-0.076300964
87	0xbccdbcd0	-0.025114447
88	0xbca9d490	-0.02073124
89	0x3db0d58c	0.08634481
90	0xbdafd6d4	-0.08585897
91	0xbceebce0	-0.029142797
92	0x3cdadd68	0.026716903
93	0xbde417ee	-0.11137377
94	0x3d9806b4	0.074231535
95	0x3da56ca4	0.08077362
96	0xbd999fdc	-0.07501194
97	0x3de1b82c	0.11021456
98	0xbd977efa	-0.07397266
99	0xbdbe5606	-0.092937514
100	0x3ca28460	0.019838512
101	0x3d355f34	0.044280246
102	0x3d3f7764	0.04674472
103	0xbd00dff4	-0.03146358
104	0xbdae3bd2	-0.085075036
105	0x3c5d1ff0	0.013496384
106	0x3cdce618	0.026965186
107	0x3cb5a2b8	0.022172317
108	0xbdd71ab2	-0.105031386
109	0x3d0cf1ac	0.034410164
110	0xbdd175b0	-0.10227525
111	0x3d53a614	0.051672056
112	0xbce69e38	-0.028151616
113	0x3c258dd0	0.0101046115
114	0xbcbfe8d8	-0.023426458
115	0x3c8a3ca0	0.016874611
116	0x3d6f76ac	0.058462784
117	0xbc722cd0	-0.014781192
118	0xbd483e80	-0.04888773
119	0x3d441340	0.04786992
120	0x3dc50572	0.09620179
121	0x3de880aa	0.11352666
122	0x3d5b0be4	0.053478137
123	0xbd90c01c	-0.07067892
124	0xbdd05b68	-0.10173684
125	0xbdf35ac8	-0.118825495
126	0xbdc37454	-0.09543672
127	0x3d668fc4	0.05628945
128	0xbcd94ee8	-0.026526883
129	0xbd4fc69c	-0.050726518
130	0xbdd54a9a	-0.1041462
131	0x3d11a95c	0.035561904
132	0x3d16d96c	0.036828443
133	0x3d4eefcc	0.050521657
134	0xbd2cc048	-0.04217556
135	0xbdb1fc0a	-0.08690651
136	0xbd301854	-0.04299195
137	0x3cdcbcf8	0.026945576
138	0xbdafc37a	-0.08582206
139	0xbcdf9208	-0.027291313
140	0x3dcb741a	0.09934254
141	0x3d6348d8	0.05548939
142	0xbd81c106	-0.063356444
143	0xbc69cca0	-0.014269978
144	0xbd9b73c8	-0.07590443
145	0x3dc06204	0.09393695
146	0xbdf4e3c0	-0.11957502
147	0xbd5ed754	-0.05440457
148	0x3d1acb14	0.037791327
149	0x3d64fb7c	0.055903897
150	0x3d9e1832	0.07719459
151	0x3dd2e592	0.10297693
152	0xbdfe2732	-0.1240982
153	0xbdafc76e	-0.0858296
154	0xbd2a0c44	-0.041515604
155	0xbd886170	-0.0665921
156	0x3d19594c	0.037438676
157	0x3c2cf900	0.010557413
158	0xbc5dec20	-0.013545066
159	0xbdda81ba	-0.10669275
160	0x3dfec60c	0.12440118
161	0xbd548040	-0.05188012
162	0x3dd30f58	0.10305661
163	0xbdee372a	-0.116316155
164	0xbdc8c6ce	-0.09803544
165	0xbdc94528	-0.09827644
166	0x3c4f7b90	0.012663737
167	0x3d6abb84	0.057307735
168	0x3cdb38b0	0.02676043
169	0x3d20b300	0.039233208
170	0xbd034ac4	-0.032053724
171	0xbd86d4c4	-0.065835506
172	0x3dce9b18	0.100881755
173	0xbd08327c	-0.03325127
174	0xbd299450	-0.041401207
175	0x3d8fb69a	0.0701725
176	0xbddce290	-0.10785401
177	0x3c052520	0.008126527
178	0xbdf8fc76	-0.12157528
179	0xbd13d73c	-0.036093935
180	0xbce2b7c8	-0.027675524
181	0xbd1f1910	-0.03884226
182	0x3ce979f8	0.028500542
183	0xbc66bc90	-0.014083043
184	0x3c2834c0	0.010266483
185	0x3cd74c40	0.026281476
186	0xbc5b6e20	-0.013392955
187	0x3df9051a	0.12159176
188	0x3be5ca20	0.0070126206
189	0x3d1c8ba8	0.038219124
190	0x3dd286ee	0.10279642
191	0x3c351090	0.011051312
192	0x3d4203f4	0.04736705
193	0x3e524cc1	0.20537092
194	0x3e670011	0.22558619
195	0xbcd85f98	-0.02641277
196	0xbe31ff5e	-0.17382571
197	0x3e10aceb	0.14128463
198	0x3e8a6bb6	0.27035302
199	0x3e5db01c	0.21649212
200	0xba11b0a8	-0.0005557635
201	0xbd1cb71b	-0.03826056
202	0xbd1e1b8c	-0.03860049
203	0x3d14b9ac	0.036309883
204	0x3da7a14c	0.08185062
205	0x3e9f194b	0.31073985
206	0xbdb3cb71	-0.08779038
207	0x3d6e195c	0.058129653
208	0x3dbc478e	0.091933355
209	0x3e8f2d18	0.2796409
210	0xbe5eb1b5	-0.21747477
211	0x3e2151be	0.15753838
212	0x3d8f4000	0.06994629
213	0xbd8f1e72	-0.06988229
214	0xbe4327c5	-0.1905814
215	0x3dd39cd0	0.10332644
216	0x3cba05f4	0.022707917
217	0x3c584ed9	0.0132023925
218	0x3c176b90	0.0092419535
219	0xbd7329ac	-0.059365913
220	0x3b0f06c0	0.0021824092
221	0xbc1b6061	-0.009483428
222	0x3d1bf31b	0.03807364
223	0x3bc64e2c	0.0060517993
224	0xbe007ffb	-0.1254882
225	0x3e03ac7c	0.12858766
226	0x3dd9d029	0.106354065
227	0xbdf0ef4b	-0.117643915
228	0x3debf23a	0.115208104
229	0x3e36cc60	0.178514
230	0xbd86ffb4	-0.0659174
231	0x3e3f4742	0.18679526
232	0xbe7d865c	-0.24758285
233	0xbb80bfbf	-0.003929108
234	0x3daccde8	0.08437711
235	0x3d0b9840	0.034080744
236	0x3d13a53f	0.036046263
237	0x3c08ecae	0.00835721
238	0xbdef6078	-0.11688322
239	0x3e297010	0.16546655
240	0x3db59962	0.08867146
241	0x3e8e8abc	0.2784022
242	0xbe29f1fb	-0.16596214
243	0xbe60fcd7	-0.21971451
244	0x3db1b3c6	0.08676867
245	0x3ea23339	0.31679705
246	0xbd8bb7f0	-0.06822193
247	0x3dd59711	0.10429204
248	0xbdb3a964	-0.08772543
249	0x3d83cd71	0.06435669
250	0x3e36b25f	0.1784148
251	0x3cc53353	0.024072325
252	0x3dbb95cc	0.09159431
253	0x3dbdaa8f	0.09261047
254	0x3e358732	0.17727354
255	0x3d7ca3db	0.061679702

bias f4 [32]
0	0x3d7d6c88	0.06187108
1	0x3d22a90c	0.039711997
2	0xbc8d57e8	-0.017253831
3	0x3da91b96	0.08257215
4	0x3d36dd6b	0.044644754
5	0x3db023f7	0.0860061
6	0x3cb1dee7	0.021712733
7	0xbd281a49	-0.041040692
8	0x3d8ae891	0.0678264
9	0x3e162ebb	0.14666264
10	0xbcad688d	-0.021168018
11	0x3cbbdde8	0.022932962
12	0x3d8bb8f7	0.068223886
13	0x3d9fd075	0.07803432
14	0x3e44278c	0.19155711
15	0xbdf625c6	-0.120189235
16	0xbddce7da	-0.1078641
17	0x3e0009a5	0.12503679
18	0x3dac2733	0.08405914
19	0x3d2ca7a0	0.042152047
20	0x3d518f23	0.051161896
21	0xbd569390	-0.05238682
22	0x3e301b43	0.171979
23	0x3d7ad313	0.061236452
24	0x3d3a38e9	0.04546443
25	0x3d67e70a	0.05661682
26	0x3db52bb4	0.08846226
27	0xbd254219	-0.04034624
28	0xbd8e5a55	-0.06950823
29	0xbdabc4be	-0.08387135
30	0xbd4eec41	-0.050518278
31	0xbda10336	-0.078619406

weight f4 [16, 32]
0	0xbde483ed	-0.11157975
1	0xbc8f1465	-0.01746578
2	0xbdd3c34a	-0.10339983
3	0x3e4c46dd	0.19948907
4	0x3e8e5f4f	0.2780709
5	0x3e464c42	0.19365028
6	0x3e9703b0	0.29495
7	0x3cd9673e	0.026538488
8	0x3e411462	0.18855432
9	0xbe1feeb6	-0.15618405
10	0x3e6d29df	0.23160504
11	0x3e3a1d4e	0.18175241
12	0xbcfe1889	-0.031017559
13	0x3d7c3883	0.06157733
14	0xbe3ef5ca	-0.18648449
15	0x3d821bbf	0.063529484
16	0x3d88c0a5	0.06677369
17	0x3da377b9	0.0798182
18	0xbda86b10	-0.082235456
19	0x3e515f05	0.20446403
20	0xbd9519d1	-0.07280315
21	0xbe09c7ca	-0.1345512
22	0xbe12a504	-0.14320761
23	0x3d894bb1	0.0670389
24	0x3e09a0f2	0.13440302
25	0x3e78ebe9	0.24308743
26	0x3e4d989b	0.20077746
27	0x3e42d17d	0.19025226
28	0x3d94f4c7	0.0727325
29	0x3deb7ac6	0.114980265
30	0xbd05a96c	-0.032632276
31	0xbe28453e	-0.16432664
32	0x3e242f48	0.16033661
33	0x3dd7f680	0.10545063
34	0xbd435f74	-0.047698453
35	0xbe1caead	-0.15301009
36	0xbd72ff69	-0.05932561
37	0xbc800a99	-0.015630053
38	0xbd85bc85	-0.06530098
39	0x3d3b1f2b	0.04568402
40	0x3ca4c9ba	0.020115722
41	0x3e255b50	0.16148114
42	0x3d9519f2	0.07280339
43	0xbca64106	-0.020294677
44	0xbd4d9365	-0.050189395
45	0x3d7edd6d	0.062222887
46	0xbdd37363	-0.10324743
47	0xbd09efad	-0.03367584
48	0x3e074fdb	0.13214056
49	0xbd9af6ef	-0.0756663
50	0xbcc57e50	-0.024108082
51	0xbe314a16	-0.17313418
52	0xbe1e8cbb	-0.15483372
53	0xbde071c3	-0.10959198
54	0x3d916241	0.070988186
55	0x3d3ae4bf	0.045628306
56	0xbd9b8fb1	-0.07595766
57	0x3c44e87e	0.012018321
58	0x3de02a2b	0.10945543
59	0xbdfc51d1	-0.12320293
60	0xbe29f504	-0.16597372
61	0xbe108eac	-0.14116925
62	0x3e2e4131	0.17017056
63	0x3e21fec7	0.15819846
64	0xbded7c30	-0.115959525
65	0xbca13fec	-0.0196838
66	0xbe289719	-0.16463889
67	0x3c0a9baf	0.008459969
68	0xbd817b0c	-0.063222975
69	0xbe469b9e	-0.19395301
70	0x3dc7a397	0.09747999
71	0xbd07d3cc	-0.03316097
72	0xbc5cfb6d	-0.013487679
73	0x3e5348cf	0.20633243
74	0xbd61d189	-0.05513147
75	0xbd13199f	-0.035913106
76	0x3c412307	0.011788136
77	0xbdc0de58	-0.09417409
78	0x3e8a339b	0.26992497
79	0x3d0cc88c	0.034370944
80	0x3dd8b415	0.10581223
81	0xbe60f6f3	-0.21969204
82	0x3e7875f8	0.24263752
83	0xbd9f8741	-0.077894695
84	0xbdd01d07	-0.101617865
85	0x3d934bb8	0.071921766
86	0x3ca8d47a	0.02060913
87	0xbc9a149e	-0.01880866
88	0x3e218827	0.15774594
89	0xbdce0957	-0.10060375
90	0xbdcf63fd	-0.10126493
91	0x3d399e81	0.045317177
92	0x3d88c2ae	0.06677757
93	0x3dbc7e89	0.09203822
94	0x3c00b42c	0.007855456
95	0x3de68278	0.11255354
96	0xbc2d0f3f	-0.010562717
97	0xbe3135a2	-0.17305616
98	0xbdd2b1f0	-0.10287845
99	0x3e3b2ee5	0.18279608
100	0x3e17f8ab	0.14840953
101	0x3e0603fa	0.13087454
102	0x3e9615d3	0.29313526
103	0x3df4ea5c	0.11958763
104	0x3e320f5b	0.1738867
105	0xbd921774	-0.071333796
106	0x3d84a6fe	0.06477164
107	0x3e783eda	0.24242726
108	0xbe090cca	-0.13383785
109	0x3e85366e	0.2601809
110	0xbe899eba	-0.2687891
111	0xbe107278	-0.14106166
112	0x3d71de9f	0.0590502
113	0x3b22175e	0.0024733166
114	0xbd95f671	-0.073223956
115	0x3e6d3ebe	0.23168465
116	0xbd7d95b5	-0.06191035
117	0x3c285535	0.010274221
118	0xbe43c00c	-0.19116229
119	0x3da8d9fb	0.082447015
120	0xbe163095	-0.1466697
121	0x3e8184e6	0.25296706
122	0x3ded5f76	0.11590473
123	0x3e7f4d42	0.24931815
124	0xbe1a758a	-0.150839
125	0x3e030f74	0.12798864
126	0xbdff842e	-0.12476383
127	0x3e184082	0.14868358
128	0xbdbfee85	-0.09371666
129	0x3d06a1d8	0.03286919
130	0x3e1d1763	0.15340953
131	0xbdca4b70	-0.0987767
132	0xbdfc1d9a	-0.123103335
133	0x3e11a89a	0.14224473
134	0xbe1f8e6c	-0.15581673
135	0xbde3653a	-0.11103292
136	0xbcc8279c	-0.02443295
137	0xbe1ff6b1	-0.15621449
138	0x3e00b1a8	0.1256777
139	0xbdc0c438	-0.09412426
140	0xbdc2d777	-0.09513753
141	0xbe2aa04d	-0.16662712
142	0xbe10e7ff	-0.14151
143	0x3d9bcbc3	0.07607224
144	0xbd075c52	-0.033047028
145	0x3d3ea8a4	0.046547547
146	0x3d9f89de	0.07789968
147	0xbe19c898	-0.15017927
148	0xbd1d4c62	-0.038402922
149	0x3c763506	0.01502729
150	0x3d7a68f4	0.061135247
151	0xbe045385	-0.12922485
152	0xbdfb1859	-0.12260503
153	0xb954a990	-0.00020281062
154	0x3de38307	0.11108976
155	0xbc72f2a3	-0.014828357
156	0xbcbe3fb4	-0.023223735
157	0x3e00adb1	0.12566258
158	0x3c872c15	0.016500512
159	0xbe07b4c9	-0.13252558
160	0xbbe847ca	-0.007088636
161	0xbdd8b50e	-0.105814084
162	0xbdd82e65	-0.10555724
163	0x3d8fed4d	0.070276834
164	0xbe25b6a3	-0.16182952
165	0xbd26b743	-0.040702116
166	0xbe000270	-0.1250093
167	0x3d2fc30a	0.042910613
168	0x3d7ad430	0.061237514
169	0xbc6896e6	-0.014196133
170	0x3e20ddd4	0.1570962
171	0x3e0866a8	0.1332041
172	0x3cc5c94f	0.024143843
173	0x3d98003d	0.074219204
174	0x3d78e674	0.060766652
175	0x3dc09acc	0.09404525
176	0x3defff2e	0.117185935
177	0xbdaab0c2	-0.08334495
178	0x3dd72c4b	0.10506495
179	0xbe036a0f	-0.12833427
180	0x3d17e9d0	0.037088215
181	0xbdabc7ee	-0.08387743
182	0xbdd70413	-0.10498824
183	0x3db6d8fd	0.08928106
184	0x3d9a3417	0.075294666
185	0xbd9c383f	-0.076279156
186	0xbe03da9d	-0.12876363
187	0x3ddd0e84	0.10793784
188	0xbd7fe47e	-0.062473767
189	0x3d33a4ad	0.04385822
190	0x3da701cf	0.08154642
191	0x3dc433b5	0.09580175
192	0x3d88d64a	0.066814974
193	0xbda4ff88	-0.08056551
194	0x3d5d92d8	0.05409512
195	0x3db94732	0.090467826
196	0xbdfefe46	-0.124508426
197	0xbd278fb7	-0.04090854
198	0xbc4b888b	-0.012422691
199	0xbdc73580	-0.09727001
200	0xbe01d675	-0.12679465
201	0x3e6c5aa1	0.23081447
202	0xbe7a9ef1	-0.24474694
203	0x3c990d9e	0.018683251
204	0x3cc83a20	0.024441779
205	0x3d262edd	0.040572036
206	0x3e17997c	0.14804643
207	0x3d7410af	0.059586223
208	0xbdbe7903	-0.09300425
209	0xbe88973d	-0.26677886
210	0x3eb48b61	0.35262588
211	0xbd99ee41	-0.075161465
212	0xbd0ab9b0	-0.03386849
213	0xbe2b3247	-0.16718398
214	0x3eb7f31e	0.3592767
215	0xbe41fbca	-0.18943706
216	0x3d117edf	0.035521384
217	0xbe801e37	-0.25023052
218	0xbc67ad42	-0.014140429
219	0xbd074313	-0.03302295
220	0x3e4cde0d	0.2000658
221	0xbd32655a	-0.043553688
222	0xbce4cf17	-0.02793078
223	0x3e1038bc	0.14084142
224	0xbd2ed2e3	-0.042681586
225	0x3e19dd68	0.15025866
226	0x3d4d474b	0.05011682
227	0x3ddc4244	0.10754827
228	0xbb9124c7	-0.004429433
229	0x3e851011	0.2598882
230	0x3e849d7e	0.25901407
231	0x3e076779	0.13223065
232	0x3e00bc05	0.12571724
233	0xbe86dd4d	-0.26340714
234	0x3c896ace	0.016774561
235	0x3de53d46	0.111933276
236	0x3c3b69ff	0.011438846
237	0x3e84bb56	0.25924176
238	0xbdcc039b	-0.09961625
239	0xbd2a0206	-0.041505836
240	0xbe1bbd52	-0.15208939
241	0x3e0f902b	0.1401984
242	0x3e497008	0.19671643
243	0x3e433645	0.19063671
244	0xbba0aca3	-0.0049033924
245	0xbdffa4ad	-0.12482581
246	0xbe81e93d	-0.2537326
247	0x3e3f918c	0.18707865
248	0xbd9c62d8	-0.076360404
249	0xbcc9abc2	-0.024618033
250	0x3e13b3db	0.14424078
251	0x3c28696f	0.010279044
252	0xbde1ca39	-0.11024899
253	0x3e2f5fa1	0.17126323
254	0xbc6ae25e	-0.014336197
255	0x3e08bf78	0.1335429

bias f4 [16]
0	0x3db6de0f	0.08929073
1	0xbe11c210	-0.14234185
2	0xbe0086de	-0.12551448
3	0x3e29a015	0.16564973
4	0x3c1fa956	0.009744963
5	0xbdc31833	-0.095261
6	0x3d48e4ed	0.049046446
7	0x3d80b465	0.062844075
8	0xbe37008d	-0.17871304
9	0x3eac25ec	0.33622682
10	0xbca693ab	-0.020334085
11	0x3c8d2e00	0.017233849
12	0xbc0aac9b	-0.008464004
13	0x3d1a5981	0.037683014
14	0x3dc1af0f	0.09457218
15	0xbd884d60	-0.06655383

weight f4 [2, 16]
0	0x3e89fbe3	0.26949987
1	0xbe1fc15e	-0.15601107
2	0xbe06c26f	-0.13160108
3	0x3e9818d0	0.2970643
4	0xbe0297da	-0.1275324
5	0xbc7e0e20	-0.015506297
6	0xbed4a2d5	-0.4153048
7	0x3e745d3a	0.23863688
8	0xbe22691c	-0.15860409
9	0xbf0ed5c3	-0.55794924
10	0xbe36ee8f	-0.1786444
11	0x3eb09701	0.34490207
12	0x3e9be388	0.3044703
13	0xbed4d4cc	-0.415686
14	0x3e92e3e2	0.28689486
15	0xbe4eb606	-0.20186624
16	0xbe9e05d0	-0.3086381
17	0xbe291d94	-0.1651519
18	0x3e76c529	0.24098648
19	0xbdc17987	-0.094470076
20	0x3db92d18	0.09041804
21	0x3e10ffee	0.1416013
22	0x3e81e3ec	0.25369203
23	0xbe9a479c	-0.3013276
24	0x3d957c85	0.07299141
25	0x3ea7c4e3	0.327674
26	0x3e7d6f9c	0.24749607
27	0xbe6199af	-0.22031282
28	0xbe6c4d07	-0.23076259
29	0x3ed2ff55	0.41210428
30	0xbe965ea0	-0.29369068
31	0xbe09250c	-0.13393039

bias f4 [2]
0	0x3d5b2e7f	0.05351114
1	0xbe38f5ad	-0.18062468
